CPDNet/best-model.pt (torch, 5540 bytes, 4 tensors)

weight_ih_l0 f4 [4, 1]
000000 ec 3a f0 3e 49 c9 fc be f0 d1 7e 3f 71 bc b6 bb
       0.46919954 -0.49372318 0.9953909 -0.005576663

weight_hh_l0 f4 [4, 1]
000000 31 36 5b bf b1 25 28 3f 61 f7 cb 3e 46 1c fa 3c
       -0.85629565 0.6568251 0.39837173 0.03053106

bias_ih_l0 f4 [4]
000000 70 5e 2d 3e 16 63 e0 be 15 09 45 bf 2d 93 26 bf
       0.16930556 -0.43825597 -0.76966983 -0.6506832

bias_hh_l0 f4 [4]
000000 4d f9 27 bf 5e 92 42 3f 46 d9 22 3f f9 31 0b 3f
       -0.6561478 0.7600459 0.6361278 0.5437313
