CPDNet/best-model.pt (torch, 7714 bytes, 8 tensors)

weight_ih_l0 f4 [4, 1]
0.23868325 -0.23973581 -0.2680594 -0.5514599
00000000: 6269 743e 4e7d 75be 153f 89be 7a2c 0dbf

weight_hh_l0 f4 [4, 1]
-0.85196364 -0.14342396 -0.26389247 -0.861477
00000000: 4a1a 5abf bbdd 12be ea1c 87be c289 5cbf

bias_ih_l0 f4 [4]
0.13004947 0.36571294 1.0474544 0.8739843
00000000: b02b 053e ba3e bb3e fc12 863f 6fbd 5f3f

bias_hh_l0 f4 [4]
-0.7194653 0.8771383 0.4992951 -0.71257585
00000000: e12e 38bf 238c 603f 9ba3 ff3e 5f6b 36bf

weight_ih_l0 f4 [4, 1]
0.6202755 0.6061746 -0.8193029 -0.538394
00000000: 60ca 1e3f 422e 1b3f d6bd 51bf 30d4 09bf

weight_hh_l0 f4 [4, 1]
0.47155285 -0.6237885 0.6104243 -0.522243
00000000: 606f f13e 9ab0 1fbf c444 1c3f b8b1 05bf

bias_ih_l0 f4 [4]
0.86307335 -0.2043469 -0.5031159 -0.15959823
00000000: 60f2 5c3f 5040 51be 34cc 00bf b86d 23be

bias_hh_l0 f4 [4]
0.98661494 0.07784152 0.13971007 0.20385432
00000000: cc92 7c3f 606b 9f3d 2810 0f3e 30bf 503e
