CPDNet/best-model.pt (torch, 5540 bytes, 4 tensors)

weight_ih_l0 f4 [4, 1]
0	0xbee47091	-0.4461713
1	0x3f1fd942	0.62440884
2	0x3d898ed9	0.06716699
3	0x3f6e1cd2	0.93012726

weight_hh_l0 f4 [4, 1]
0	0x3fffa0f6	1.9970996
1	0xbf1c3309	-0.61015373
2	0x3fd78c13	1.6839622
3	0xc0364518	-2.8479671

bias_ih_l0 f4 [4]
0	0xbddf6c7d	-0.10909364
1	0x3f4da0d2	0.8032352
2	0xbf35c4a4	-0.71003175
3	0x3de68612	0.11256041

bias_hh_l0 f4 [4]
0	0x3ec2d285	0.3805124
1	0x3ff4e760	1.913311
2	0x3f2bc80c	0.6710212
3	0x3d9a8dca	0.07546575
