CPDNet/best-model.pt (torch, 5796 bytes, 4 tensors)

weight_ih_l0 f4 [4, 1]
00000000: 6dd3 69bf 83f4 15bf 8494 253f 6b17 423f
-0.91338235 -0.5857622 0.6467974 0.75816983

weight_hh_l0 f4 [4, 1]
00000000: 0ded a73e 5268 cc3e 0d97 3dbe eb0b 44bf
0.32798043 0.3992334 -0.18514653 -0.76580685

bias_ih_l0 f4 [4]
00000000: e9a3 6f3e e6df b93e 7c2d 013f 71e3 ccbe
0.2340237 0.36303633 0.5046003 -0.40017274

bias_hh_l0 f4 [4]
00000000: d476 d3be 026a f63e 05a7 a13e 40cb 11bf
-0.41301596 0.48127753 0.31572738 -0.5695076
