CPDNet/best-model.pt (torch, 7714 bytes, 8 tensors)

weight_ih_l0 f4 [4, 1]
0.5800175 -0.21246633 0.3996554 0.049092498
00000000: 077c 143f c690 59be a29f cc3e 3715 493d

weight_hh_l0 f4 [4, 1]
-0.9118778 -0.6424153 0.6702665 0.6415204
00000000: d370 69bf 5475 24bf 9696 2b3f ae3a 243f

bias_ih_l0 f4 [4]
0.64760286 -0.036080733 -0.31269982 -0.7548884
00000000: 4dc9 253f 64c9 13bd 311a a0be 5e40 41bf

bias_hh_l0 f4 [4]
0.30907133 -0.78922015 0.055003867 -0.8760166
00000000: 993e 9e3e 550a 4abf bc4b 613d a042 60bf

weight_ih_l0 f4 [4, 1]
0.7348505 0.6757959 0.95056593 -0.79447865
00000000: 2a1f 3c3f f600 2d3f 4a58 733f f462 4bbf

weight_hh_l0 f4 [4, 1]
-0.64450717 0.04161942 -0.41357458 0.7471067
00000000: 6cfe 24bf 2079 2a3d 0cc0 d3be 6242 3f3f

bias_ih_l0 f4 [4]
0.7772502 -0.49778855 -0.5935937 -0.7947295
00000000: def9 463f 24de febe c2f5 17bf 6473 4bbf

bias_hh_l0 f4 [4]
0.54365337 -0.24796462 -0.8671746 0.3900144
00000000: de2c 0b3f 70ea 7dbe 28ff 5dbf f8af c73e
