CPDNet/best-model.pt (torch, 7714 bytes, 8 tensors)

weight_ih_l0 f4 [4, 1]
0.36185613 -0.5490712 0.3965575 -0.70815724
00000000: 3545 b93e ee8f 0cbf 9609 cb3e cb49 35bf

weight_hh_l0 f4 [4, 1]
-0.5802185 0.05683608 0.7270446 -0.44471076
00000000: 3389 14bf f3cc 683d 981f 3a3f 21b1 e3be

bias_ih_l0 f4 [4]
-0.6650908 -0.6296316 0.55569476 -0.28905177
00000000: 6443 2abf 892f 21bf 0342 0e3f 98fe 93be

bias_hh_l0 f4 [4]
0.35468507 -0.13831232 -0.21879065 -0.19609292
00000000: 4899 b53e bfa1 0dbe a80a 60be 95cc 48be

weight_ih_l0 f4 [4, 1]
0.07612693 -0.08620703 0.65119946 -0.70579565
00000000: 70e8 9b3d 508d b0bd 02b5 263f 06af 34bf

weight_hh_l0 f4 [4, 1]
0.16990197 0.9119439 -0.048628926 -0.5859002
00000000: c8fa 2d3e 2875 693f 202f 47bd 8efd 15bf

bias_ih_l0 f4 [4]
0.8740177 0.39272177 -0.10957694 -0.19841194
00000000: a0bf 5f3f d412 c93e e069 e0bd 802c 4bbe

bias_hh_l0 f4 [4]
-0.20274734 -0.15208745 0.40569973 0.17211199
00000000: 009d 4fbe d0bc 1bbe e0b7 cf3e 203e 303e
