CPDNet/checkpoint.pt (torch, 812898 bytes, 20 tensors)

lstm.weight_ih_l0 f4 [4, 1]
0.23816456 -0.23832777 -0.265894 -0.5423354
00000000: 69e1 733e 320c 74be 4223 88be 7ed6 0abf

lstm.weight_hh_l0 f4 [4, 1]
-0.85106736 -0.14340311 -0.26260436 -0.8601252
00000000: 8ddf 59bf 44d8 12be 1474 86be 2a31 5cbf

lstm.bias_ih_l0 f4 [4]
0.12926945 0.36662695 1.0561016 0.8735832
00000000: 365f 043e 87b6 bb3e 562e 873f 26a3 5f3f

lstm.bias_hh_l0 f4 [4]
-0.7202429 0.87805116 0.5079524 -0.71297264
00000000: d761 38bf f6c7 603f 2b09 023f 6085 36bf

lstm2.weight_ih_l0 f4 [4, 1]
0.6202755 0.6061746 -0.8193029 -0.538394
00000000: 60ca 1e3f 422e 1b3f d6bd 51bf 30d4 09bf

lstm2.weight_hh_l0 f4 [4, 1]
0.47155285 -0.6237885 0.6104243 -0.522243
00000000: 606f f13e 9ab0 1fbf c444 1c3f b8b1 05bf

lstm2.bias_ih_l0 f4 [4]
0.86307335 -0.2043469 -0.5031159 -0.15959823
00000000: 60f2 5c3f 5040 51be 34cc 00bf b86d 23be

lstm2.bias_hh_l0 f4 [4]
0.98661494 0.07784152 0.13971007 0.20385432
00000000: cc92 7c3f 606b 9f3d 2810 0f3e 30bf 503e

exp_avg f4 [4, 1]
0.022159837 -0.12278671 -0.122947454 -0.1080418
00000000: 8c88 b53c 9977 fbbd e0cb fbbd 0545 ddbd

exp_avg_sq f4 [4, 1]
51.563255 171.46484 87.42549 5.3085084
00000000: c640 4e42 0077 2b43 dad9 ae42 4ddf a940

exp_avg f4 [4, 1]
-0.002613118 0.009494039 -0.008257917 -0.0049158973
00000000: d840 2bbb e38c 1b3c 374c 07bc 8915 a1bb

exp_avg_sq f4 [4, 1]
1.2380939 1.0748737 1.418915 2.4169018
00000000: dc79 9e3f 7695 893f 029f b53f 85ae 1a40

exp_avg f4 [4]
-0.009763342 -0.01700993 -0.02464481 0.006455253
00000000: 6df6 1fbc 6958 8bbc eae3 c9bc 9686 d33b

exp_avg_sq f4 [4]
9.9065695 34.327972 0.1676914 7.9097447
00000000: 4f81 1e41 d84f 0942 4bb7 2b3e a11c fd40

exp_avg f4 [4]
-0.009848294 -0.016958788 -0.024699626 0.0062965974
00000000: bd5a 21bc 28ed 8abc df56 cabc b053 ce3b

exp_avg_sq f4 [4]
9.906569 34.327972 0.1676949 7.9097457
00000000: 4e81 1e41 d84f 0942 36b8 2b3e a31c fd40

MSE_train_linear_epoch f4 [15095]
0.0 11.794235 12.0006485 12.229399 12.689194 12.673942 13.04467 12.687068
12.801001 12.110526 12.108244 11.883411 12.470882 12.862356 12.276255 12.09952
13.00408 13.208748 12.845083 12.555901 12.702243 12.363185 12.440308 11.832405
12.683691 12.2452755 11.852682 12.431711 12.285683 12.717266 12.440216 12.737356
12.652306 11.777473 12.903708 11.327108 13.398506 12.521567 12.604546 11.715721
11.968384 12.598263 12.753989 12.589622 12.554126 12.628985 12.661461 12.039215
11.676558 12.461304 12.535679 11.8716955 12.476578 11.112572 12.328174 12.661078
12.118754 12.31381 11.987129 12.479132 12.192816 11.355014 12.121983 12.687836
11.897998 12.133845 11.98992 12.63648 12.23392 11.86557 12.205067 11.201037
12.420868 11.946653 12.040199 12.485027 12.568377 12.43376 11.973262 11.8385
11.172999 12.009199 11.185921 12.62261 11.467283 11.599543 11.994723 11.906524
12.419287 12.261119 12.491774 12.366272 11.994007 12.250822 12.368782 11.992086
11.6170635 12.370608 12.535952 12.024368 11.335161 12.600374 12.029488 11.592773
11.351799 11.783577 11.646641 11.942264 12.252563 12.000383 11.015254 11.035819
12.660041 12.507826 12.117366 11.518008 12.382433 12.309151 12.173964 11.678123
12.589632 12.064078 11.176865 11.36936 11.703093 11.056118 11.12405 11.67976
11.655195 11.435654 11.81987 11.816128 12.1169615 11.323657 11.424204 12.013571
12.156729 11.233639 12.426196 11.26277 11.833481 11.783054 12.162918 10.993013
12.038784 11.891289 11.61511 11.138171 11.448799 11.212344 12.235075 11.016837
11.785098 11.61615 11.429899 11.958064 11.091469 11.502868 12.076861 11.982645
11.834437 11.444624 11.605051 11.483653 11.455675 10.712519 11.502182 11.535568
11.0782585 11.395689 11.318061 12.058699 11.249049 12.352993 11.315672 11.706776
11.649004 11.342586 11.787495 11.786479 11.231372 11.51087 11.059085 11.88327
11.311942 11.453109 10.546215 11.5651655 10.976973 10.961397 11.274601 12.00573
10.862366 11.278018 11.926027 11.51121 11.531864 11.673427 12.197342 11.701986
11.194532 12.028435 11.852661 11.0699415 11.6951065 10.869777 11.0875845 11.485268
11.427043 11.613625 11.030733 11.84489 11.142383 12.07604 11.228413 11.566447
11.144293 11.32884 11.525108 11.610748 10.737041 11.759705 12.2202 11.413603
11.244131 11.166292 11.195968 11.362151 11.491968 12.044233 11.435083 11.559421
11.473457 11.196419 10.839781 11.422633 11.209136 11.490065 11.438845 11.227809
11.456203 11.5339155 11.807284 11.234686 11.053442 11.8639555 11.136803 10.410795
11.081097 11.301379 11.639499 12.0562315 10.4152565 10.854861 10.96855 11.426336
00000000: 0000 0000 30b5 3c41 a802 4041 9eab 4341
00000010: f006 4b41 77c8 4a41 f8b6 5041 3bfe 4a41
00000020: e6d0 4c41 b7c4 4141 5ebb 4141 7422 3e41
00000030: bc88 4741 36cc 4d41 8a6b 4441 a297 4141
00000040: b610 5041 0857 5341 7685 4d41 f8e4 4841
00000050: 633c 4b41 9bcf 4541 800b 4741 8851 3d41
00000060: 66f0 4a41 a6ec 4341 96a4 3d41 4ae8 4641
00000070: 2892 4441 ec79 4b41 200b 4741 36cc 4b41
00000080: d86f 4a41 8870 3c41 9775 4e41 d63b 3541
00000090: 4860 5641 5758 4841 38ac 4941 9873 3b41
000000a0: 807e 3f41 7c92 4941 5710 4c41 176f 4941
000000b0: b3dd 4841 5310 4a41 5895 4a41 a0a0 4041
000000c0: 2ed3 3a41 8061 4741 2492 4841 77f2 3d41
000000d0: 10a0 4741 18cd 3141 3340 4541 c793 4a41
000000e0: 6be6 4141 5e05 4541 48cb 3f41 86aa 4741
000000f0: c615 4341 23ae 3541 a4f3 4141 6001 4b41
00000100: 335e 3e41 3b24 4241 b6d6 3f41 062f 4a41
00000110: 23be 4341 60d9 3d41 f447 4341 7337 3341
00000120: e0bb 4641 7e25 3f41 a8a4 4041 acc2 4741
00000130: 1218 4941 aef0 4641 7b92 3f41 7f6a 3d41
00000140: 9bc4 3241 ae25 4041 88f9 3241 36f6 4941
00000150: fe79 3741 ba97 3941 63ea 3f41 1f81 3e41
00000160: 66b5 4641 8b2d 4441 4ede 4741 40dc 4541
00000170: 74e7 3f41 5e03 4441 88e6 4541 96df 3f41
00000180: 7edf 3941 03ee 4541 4293 4841 d063 4041
00000190: d25c 3541 229b 4941 c878 4041 007c 3941
000001a0: f8a0 3541 8889 3c41 a458 3a41 8313 3f41
000001b0: 800a 4441 9201 4041 7b3e 3041 b792 3041
000001c0: 878f 4a41 0e20 4841 bbe0 4141 c349 3841
000001d0: 721e 4641 48f2 4441 8ec8 4241 98d9 3a41
000001e0: 226f 4941 7706 4141 70d4 3241 e6e8 3541
000001f0: de3f 3b41 dce5 3041 1cfc 3141 4ce0 3a41
00000200: ae7b 3a41 70f8 3641 301e 3d41 dc0e 3d41
00000210: 13df 4141 b32d 3541 8ac9 3641 9637 4041
00000220: f681 4241 fcbc 3341 b3d1 4641 4e34 3441
00000230: f055 3d41 6487 3c41 509b 4241 62e3 2f41
00000240: dc9e 4041 b842 3e41 7ed7 3941 f335 3241
00000250: 482e 3741 c365 3341 dec2 4341 f744 3041
00000260: c38f 3c41 c0db 3941 dee0 3641 3b54 3f41
00000270: a876 3141 bf0b 3841 d33a 4141 eab8 3f41
00000280: db59 3d41 2e1d 3741 4aae 3941 0bbd 3741
00000290: 724a 3741 7a66 2b41 f008 3841 b091 3841
000002a0: 8c40 3141 be54 3641 c716 3541 6ef0 4041
000002b0: 1bfc 3341 dca5 4541 fe0c 3541 f44e 3b41
000002c0: 5262 3a41 3b7b 3541 9499 3c41 6b95 3c41
000002d0: b3b3 3341 862c 3841 03f2 3041 e021 3e41
000002e0: b7fd 3441 ef3f 3741 4cbd 2841 eb0a 3941
000002f0: aea1 2f41 e261 2f41 c464 3441 7817 4041
00000300: 40cc 2d41 c372 3441 02d1 3e41 eb2d 3841
00000310: 8482 3841 5bc6 3a41 5028 4341 563b 3b41
00000320: ce1c 3341 7874 4041 80a4 3d41 7b1e 3141
00000330: 281f 3b41 9bea 2d41 bf66 3141 a8c3 3741
00000340: 2bd5 3641 68d1 3941 e27d 3041 ab84 3d41
00000350: 3347 3241 7637 4141 94a7 3341 2b10 3941
00000360: 064f 3241 ee42 3541 d866 3841 a0c5 3941
00000370: ecca 2b41 c027 3c41 f085 4341 1e9e 3641
00000380: f6e7 3341 22a9 3241 af22 3341 5fcb 3541
00000390: 1adf 3741 2eb5 4041 1af6 3641 63f3 3841
000003a0: 4893 3741 8824 3341 be6f 2d41 1bc3 3641
000003b0: 9f58 3341 4ed7 3741 8205 3741 1ba5 3341
000003c0: 9c4c 3741 eb8a 3841 a3ea 3c41 46c1 3341
000003d0: e6da 3041 c3d2 3d41 5830 3241 9e92 2641
000003e0: 2c4c 3141 73d2 3441 633b 3a41 53e6 4041
000003f0: e4a4 2641 83ad 2d41 2e7f 2f41 46d2 3641

MSE_cv_linear_epoch f4 [15095]
0.0 7.047946 6.2672415 6.64652 6.656244 6.874455 6.5967336 6.5074983
6.4642696 6.3555636 6.617373 6.5043488 6.0805206 6.166867 6.704683 6.719487
6.5261135 6.1041107 6.5837927 6.683707 6.5295143 6.747711 6.2852793 6.6800876
6.546272 6.6510105 6.676906 6.154725 6.5593596 6.37258 6.8162684 5.905145
5.996074 6.73121 6.5138435 6.570023 6.0016418 5.944155 6.539059 6.6383123
6.1266537 6.394004 5.9751644 6.2666287 6.0733943 6.49743 6.522205 5.993185
6.604334 6.217632 6.608937 6.5134196 6.276426 6.5006976 6.475874 5.92612
5.991212 6.4074163 6.2779694 6.277521 6.529659 6.4091043 5.9854817 6.519131
6.6259127 6.025084 6.078742 6.3680563 6.1887937 6.297933 6.603515 6.50541
6.2965813 6.615879 6.5904226 6.2018886 6.3481717 6.4525084 6.465734 6.3167987
6.513023 6.5985236 6.247479 6.2288504 6.2838445 6.361072 6.4107327 6.3675995
6.1312428 6.2386966 6.1253633 6.2938633 6.1685295 6.4349833 6.1842904 6.671741
6.30878 6.4279532 6.1410246 5.911082 6.3333044 6.321408 6.6040587 6.0066547
6.4233313 6.0877132 6.0984964 6.6276207 5.9075103 6.5635557 6.615705 6.3595657
6.347717 5.564446 6.323 6.6139207 6.5998774 6.443338 6.1173954 6.3651743
5.866927 6.3908834 6.44745 6.5791435 6.236867 6.5430336 6.805755 6.224157
6.2087307 6.2397423 6.5906177 6.337474 6.142397 6.7158513 6.505945 6.016193
5.912093 6.1488657 6.4842916 6.44455 5.989274 6.0549235 6.271385 6.01302
6.2641335 6.523351 6.218493 6.2361226 6.436589 6.710951 6.346094 6.4958205
6.0305824 6.7039757 6.077327 6.2124853 6.28394 5.94288 5.8562055 6.279249
5.948445 6.4138293 5.9694195 5.8676686 6.0714235 6.646405 6.3759856 5.9155216
6.3588405 6.244828 6.342296 5.7208815 6.6284146 6.020819 6.5273323 6.3949385
6.1348343 6.729832 6.27295 5.8688293 6.0116644 6.1097603 6.0794463 6.0585175
6.288876 5.999501 5.9640555 6.3041553 6.1786966 6.4508576 6.3025703 6.3365097
5.811803 5.9674067 5.699954 6.515263 5.957889 6.432086 6.0253925 6.141085
6.109853 6.2534785 6.4004474 6.5856433 6.517316 6.344185 6.26281 6.2047396
6.303855 6.140914 6.028448 5.974604 5.9102044 5.7943196 6.1396585 6.260731
5.9529333 6.2719226 5.927834 6.2074747 6.466018 6.007349 5.7389627 6.1862354
6.442873 5.8636475 6.0048275 5.8428864 5.837846 5.9220686 6.264975 6.001088
5.9869394 6.306496 6.132515 6.284117 6.420259 5.9262786 6.0101495 5.89787
5.829491 5.9861298 5.872394 5.88619 6.065679 5.8479576 5.7577195 6.203297
6.47667 5.9113812 6.0236673 6.2009807 5.778049 5.915937 5.9470377 6.1509514
00000000: 0000 0000 c688 e140 3e8d c840 4bb0 d440
00000010: f3ff d440 89fb db40 7118 d340 6d3d d040
00000020: 4cdb ce40 c760 cb40 85c1 d340 a023 d040
00000030: a093 c240 f956 c540 c38c d640 0a06 d740
00000040: ecd5 d040 e054 c340 6eae d240 eee0 d540
00000050: c8f1 d040 40ed d740 0221 c940 47c3 d540
00000060: 0f7b d140 14d5 d440 37a9 d540 82f3 c440
00000070: 46e6 d140 2dec cb40 df1e da40 f3f6 bc40
00000080: d7df bf40 1366 d740 6871 d040 a13d d240
00000090: 730d c040 8536 be40 f93f d140 0e6d d440
000000a0: 8c0d c440 ae9b cc40 8c34 bf40 3988 c840
000000b0: 3f59 c240 f2ea cf40 e7b5 d040 2cc8 bf40
000000c0: b456 d340 d7f6 c640 697c d340 ef6d d040
000000d0: 7bd8 c840 b705 d040 5c3a cf40 c6a2 bd40
000000e0: 02b8 bf40 8e09 cd40 20e5 c840 74e1 c840
000000f0: f7f2 d040 6217 cd40 1189 bf40 b99c d040
00000100: 7a07 d440 7dcd c040 0e85 c240 1ec7 cb40
00000110: 990a c640 ab88 c940 ff4f d340 522c d040
00000120: 987d c940 48b5 d340 bee4 d240 df75 c640
00000130: 3924 cb40 f37a ce40 4be7 ce40 3723 ca40
00000140: af6a d040 1b27 d340 59eb c740 be52 c740
00000150: 4115 c940 e78d cb40 b924 cd40 60c3 cb40
00000160: 2433 c440 67a3 c740 fa02 c440 5467 c940
00000170: 9864 c540 62eb cd40 b5e5 c540 e77e d540
00000180: 87e1 c940 cbb1 cd40 4683 c440 9527 bd40
00000190: 6eaa ca40 f948 ca40 7354 d340 8436 c040
000001a0: ee8b cd40 8cce c240 e226 c340 7815 d440
000001b0: 530a bd40 a608 d240 dbb3 d340 9081 cb40
000001c0: 7f20 cb40 f10f b240 0456 ca40 3da5 d340
000001d0: 3232 d340 d32f ce40 b4c1 c340 82af cb40
000001e0: debd bb40 1e82 cc40 8351 ce40 5888 d240
000001f0: 6a94 c740 8860 d140 bfc8 d940 4b2c c740
00000200: ecad c640 f8ab c740 57e6 d240 96cc ca40
00000210: 848e c440 41e8 d640 b430 d040 a784 c040
00000220: de2f bd40 82c3 c440 517f cf40 c139 ce40
00000230: 22a8 bf40 efc1 c140 30af c840 a96a c040
00000240: c873 c840 4bbf d040 e5fd c640 518e c740
00000250: 89f8 cd40 1cc0 d640 3413 cb40 c3dd cf40
00000260: 88fa c040 f886 d640 7679 c240 aecc c640
00000270: 0916 c940 132c be40 0966 bb40 9cef c840
00000280: a959 be40 173e cd40 7c05 bf40 f1c3 bb40
00000290: 1a49 c240 5aaf d440 1308 cc40 f44b bd40
000002a0: 9f7b cb40 a2d5 c740 17f4 ca40 7611 b740
000002b0: f91b d440 8daa c040 e8df d040 56a3 cc40
000002c0: 9050 c440 c95a d740 02bc c840 73cd bb40
000002d0: 8e5f c040 2883 c340 d38a c240 60df c140
000002e0: 793e c940 eafb bf40 8bd9 be40 a4bb c940
000002f0: e2b7 c540 6d6d ce40 a8ae c940 b0c4 ca40
00000300: 4afa b940 fff4 be40 0666 b640 097d d040
00000310: 07a7 be40 a6d3 cd40 04d0 c040 c583 c440
00000320: ea83 c340 7f1c c840 77d0 cc40 97bd d240
00000330: da8d d040 9003 cb40 f168 c840 3a8d c640
00000340: 2eb9 c940 5e82 c440 0ce9 c040 f52f bf40
00000350: 6520 bd40 116b b940 1578 c440 e957 c840
00000360: 6e7e be40 97b3 c840 d1b0 bd40 a2a3 c640
00000370: 9fe9 ce40 343c c040 95a5 b740 a4f5 c540
00000380: 042c ce40 00a3 bb40 8c27 c040 edf8 ba40
00000390: a2cf ba40 9681 bd40 ad7a c840 ea08 c040
000003a0: 0295 bf40 d1ce c940 903d c440 7d17 c940
000003b0: c372 cd40 13a4 bd40 2553 c040 5abb bc40
000003c0: 318b ba40 608e bf40 a7ea bb40 ab5b bc40
000003d0: 0b1a c240 7822 bb40 3d3f b840 6981 c640
000003e0: e140 cf40 092a bd40 e2c1 c040 6f6e c640
000003f0: c7e5 b840 5b4f bd40 224e be40 98d4 c440

MSE_train_dB_epoch f4 [15095]
0.0 10.716698 10.792047 10.874051 11.034341 11.029118 11.154331 11.033612
11.072439 10.831631 10.8308115 10.749412 10.958972 11.093205 10.890659 10.827681
11.140796 11.208616 11.087369 10.988479 11.038804 10.921305 10.948311 10.73073
11.032456 10.879686 10.738167 10.94531 10.893993 11.043938 10.948278 11.050793
11.021696 10.710521 11.107145 10.541191 11.270563 10.976586 11.005272 10.68769
10.7803545 11.003107 11.05646 11.000127 10.9878645 11.013684 11.024838 10.805981
10.673149 10.955635 10.981479 10.745127 10.960955 10.458146 10.908987 11.024708
10.834579 10.903925 10.787152 10.9618435 10.86104 10.551877 10.835737 11.033876
10.754739 10.839985 10.788163 11.016262 10.875656 10.742886 10.865401 10.492582
10.94152 10.772463 10.806336 10.963896 10.992792 10.946025 10.782125 10.732966
10.481697 10.79514 10.486717 11.011492 10.594605 10.644408 10.789902 10.757849
10.940967 10.885301 10.966242 10.922388 10.789643 10.881653 10.923269 10.788947
10.650964 10.92391 10.981573 10.800623 10.544277 11.003834 10.802471 10.641874
10.550647 10.712771 10.662007 10.770866 10.882269 10.791951 10.419946 10.428046
11.024351 10.971818 10.834083 10.613774 10.92806 10.902281 10.854321 10.673731
11.00013 10.814941 10.483199 10.557361 10.683006 10.436028 10.462629 10.674339
10.665195 10.58261 10.726127 10.724752 10.833937 10.539866 10.578259 10.7967205
10.848167 10.505204 10.943382 10.516452 10.731125 10.712578 10.850378 10.411167
10.805826 10.752289 10.650233 10.468139 10.587599 10.496964 10.876066 10.420569
10.713331 10.650621 10.580424 10.776609 10.449891 10.608062 10.819541 10.785527
10.731477 10.586015 10.646471 10.6008005 10.590206 10.298916 10.607803 10.62039
10.4447155 10.567407 10.53772 10.813005 10.511159 10.917722 10.536803 10.684374
10.662889 10.547121 10.714215 10.7138405 10.504328 10.611081 10.437192 10.74936
10.535372 10.589233 10.230967 10.631518 10.404825 10.39866 10.521011 10.793886
10.359244 10.522327 10.764957 10.61121 10.618996 10.671984 10.862652 10.682596
10.49006 10.802092 10.738158 10.441454 10.680041 10.362206 10.44837 10.601411
10.579338 10.649677 10.4260435 10.735311 10.469781 10.819245 10.503183 10.632
10.470525 10.541855 10.61645 10.6486025 10.308846 10.703964 10.870783 10.574227
10.509258 10.47909 10.490617 10.5546055 10.603944 10.807792 10.582394 10.62936
10.596943 10.490791 10.350204 10.5776615 10.495721 10.603226 10.583821 10.50295
10.590406 10.619768 10.7215 10.5056095 10.434976 10.742294 10.467606 10.174839
10.4458275 10.531315 10.659343 10.812116 10.176699 10.356243 10.401492 10.57907
00000000: 0000 0000 9877 2b41 39ac 2c41 1dfc 2d41
00000010: a98c 3041 4477 3041 2478 3241 ad89 3041
00000020: b628 3141 5c4e 2d41 014b 2d41 97fd 2b41
00000030: f357 2f41 c57d 3141 2440 2e41 2e3e 2d41
00000040: b340 3241 7e56 3341 dd65 3141 cfd0 2f41
00000050: f19e 3041 aabd 2e41 482c 2f41 12b1 2b41
00000060: f184 3041 3213 2e41 88cf 2b41 fd1f 2f41
00000070: cc4d 2e41 f8b3 3041 262c 2f41 0cd0 3041
00000080: de58 3041 4b5e 2b41 deb6 3141 b8a8 2841
00000090: 3a54 3441 19a0 2f41 9815 3041 c700 2b41
000000a0: 557c 2c41 ba0c 3041 43e7 3041 8500 3041
000000b0: 4bce 2f41 0d38 3041 bd65 3041 4ce5 2c41
000000c0: 38c5 2a41 484a 2f41 23b4 2f41 0aec 2b41
000000d0: 1260 2f41 9154 2741 368b 2e41 3465 3041
000000e0: 705a 2d41 7a76 2e41 2d98 2c41 b663 2f41
000000f0: d2c6 2d41 7dd4 2841 2e5f 2d41 c28a 3041
00000100: 6913 2c41 9470 2d41 519c 2c41 9c42 3041
00000110: b002 2e41 dce2 2b41 afd8 2d41 9ee1 2741
00000120: 7710 2f41 025c 2c41 c1e6 2c41 1e6c 2f41
00000130: 7ae2 2f41 eb22 2f41 9683 2c41 3bba 2b41
00000140: 08b5 2741 e5b8 2c41 98c9 2741 122f 3041
00000150: 8183 2941 7f4f 2a41 70a3 2c41 2620 2c41
00000160: 330e 2f41 312a 2e41 ba75 2f41 1ac2 2e41
00000170: 61a2 2c41 401b 2e41 b6c5 2e41 879f 2c41
00000180: 596a 2a41 56c8 2e41 86b4 2f41 5acf 2c41
00000190: 5cb5 2841 b40f 3041 ecd6 2c41 1e45 2a41
000001a0: 73cf 2841 8367 2b41 9597 2a41 7855 2c41
000001b0: c61d 2e41 d5ab 2c41 19b8 2641 47d9 2641
000001c0: be63 3041 918c 2f41 6758 2d41 05d2 2941
000001d0: 55d9 2e41 be6f 2e41 4cab 2d41 9ac7 2a41
000001e0: 8800 3041 000a 2d41 2fbb 2741 f3ea 2841
000001f0: 98ed 2a41 f8f9 2641 ee66 2741 18ca 2a41
00000200: a4a4 2a41 5f52 2941 379e 2b41 9698 2b41
00000210: ce57 2d41 4ba3 2841 8d40 2941 5ebf 2c41
00000220: 1892 2d41 5115 2841 1818 2f41 6343 2841
00000230: b0b2 2b41 b866 2b41 269b 2d41 2494 2641
00000240: aae4 2c41 6009 2c41 5b67 2a41 7f7d 2741
00000250: ce66 2941 91f3 2741 5e04 2e41 a7ba 2641
00000260: ce69 2b41 f268 2a41 6b49 2941 fe6c 2c41
00000270: c132 2741 9fba 2941 d71c 2d41 8591 2c41
00000280: 21b4 2b41 5160 2941 f257 2a41 e19c 2941
00000290: 7c71 2941 5cc8 2441 90b9 2941 1eed 2941
000002a0: 8e1d 2741 1914 2941 809a 2841 1202 2d41
000002b0: b52d 2841 fdae 2e41 bf96 2841 32f3 2a41
000002c0: 319b 2a41 02c1 2841 6d6d 2b41 e46b 2b41
000002d0: ba11 2841 fdc6 2941 bdfe 2641 61fd 2b41
000002e0: e290 2841 806d 2941 0ab2 2341 b31a 2a41
000002f0: 2a7a 2641 e960 2641 1056 2841 c2b3 2c41
00000300: 77bf 2541 745b 2841 443d 2c41 84c7 2941
00000310: 68e7 2941 72c0 2a41 6ccd 2d41 eaeb 2a41
00000320: 49d7 2741 5ed5 2c41 7fcf 2b41 3210 2741
00000330: 73e1 2a41 99cb 2541 862c 2741 619f 2941
00000340: f844 2941 1465 2a41 13d1 2641 d5c3 2b41
00000350: 3984 2741 a11b 2d41 0a0d 2841 ac1c 2a41
00000360: 4587 2741 70ab 2841 fbdc 2941 ad60 2a41
00000370: 09f1 2441 7043 2b41 baee 2d41 0930 2941
00000380: ec25 2841 5aaa 2741 91d9 2741 aadf 2841
00000390: c1a9 2941 b7ec 2c41 7c51 2941 dc11 2a41
000003a0: 148d 2941 48da 2741 709a 2541 1a3e 2941
000003b0: 79ee 2741 d0a6 2941 5557 2941 150c 2841
000003c0: 4e72 2941 92ea 2941 448b 2b41 fa16 2841
000003d0: a9f5 2641 70e0 2b41 507b 2741 24cc 2241
000003e0: 1c22 2741 4480 2841 ab8c 2a41 6dfe 2c41
000003f0: c2d3 2241 2cb3 2541 836c 2641 df43 2941

MSE_cv_dB_epoch f4 [15095]
0.0 8.480626 7.970764 8.225944 8.232292 8.372382 8.19329 8.13414
8.105194 8.031541 8.206856 8.132038 7.839408 7.9006457 8.2637825 8.273361
8.146546 7.856224 8.184761 8.250174 8.148809 8.291565 7.983246 8.247822
8.159941 8.228876 8.245752 7.8920865 8.168614 8.043154 8.335467 7.712306
7.7786703 8.280931 8.138373 8.175669 7.7827005 7.740902 8.155153 8.220576
7.8722334 8.057729 7.7634983 7.97034 7.834315 8.127416 8.143944 7.776577
8.198291 7.9362497 8.201316 8.13809 7.9771237 8.1296 8.112984 7.727704
7.775147 8.06683 7.978192 7.977882 8.148905 8.067973 7.7709913 8.141897
8.212458 7.799631 7.838137 8.040069 7.91606 7.9919806 8.197752 8.132747
7.991048 8.205875 8.189133 7.9252396 8.026486 8.097285 8.106178 8.004971
8.137826 8.194468 7.957048 7.944079 7.982254 8.035303 8.069077 8.039758
7.875485 7.950938 7.8713183 7.989173 7.9018164 8.085474 7.9128985 8.242392
7.999454 8.080727 7.8824086 7.7166696 8.016304 8.008138 8.19811 7.7863264
8.077603 7.8445415 7.8522277 8.213576 7.714045 8.1713915 8.205761 8.034275
8.0261755 7.4542193 8.009232 8.20459 8.195358 8.091108 7.8656654 8.038103
7.684107 8.055609 8.09388 8.181694 7.9496646 8.157791 8.328763 7.9408054
7.9300284 7.951667 8.1892605 8.019162 7.883379 8.27101 8.133104 7.793217
7.717413 7.88795 8.118626 8.091926 7.773742 7.821087 7.9736347 7.790927
7.96861 8.144708 7.9368515 7.9491467 8.086557 8.26784 8.025065 8.12634
7.8035927 8.263325 7.837126 7.932654 7.9823203 7.7399693 7.676163 7.9790773
7.744035 8.071174 7.7593207 7.6846557 7.832905 8.225868 8.045473 7.7199306
8.033779 7.955205 8.022465 7.57463 8.214096 7.7965555 8.147357 8.058364
7.878028 8.280043 7.974718 7.6855145 7.7899475 7.8602414 7.83864 7.823663
7.98573 7.781152 7.755417 7.9962687 7.908969 8.096174 7.995177 8.018501
7.643109 7.7578564 7.5587134 8.139319 7.750924 8.083518 7.799854 7.8824515
7.8603077 7.9612164 8.062103 8.185982 8.140688 8.023759 7.9676924 7.9272356
7.9960623 7.8823304 7.8020554 7.763091 7.7160254 7.6300244 7.881442 7.966251
7.7473106 7.974007 7.7289605 7.9291496 8.106369 7.786829 7.588334 7.914264
8.0907955 7.681679 7.7850056 7.666274 7.662526 7.7247343 7.9691935 7.7823
7.772049 7.997881 7.876386 7.982443 8.075525 7.727821 7.7888527 7.706952
7.6563067 7.771461 7.6881523 7.698343 7.828794 7.670042 7.602505 7.9262257
8.113518 7.71689 7.7986097 7.924604 7.617812 7.720236 7.7430067 7.889423
00000000: 0000 0000 a5b0 0741 8010 ff40 779d 0341
00000010: 78b7 0341 47f5 0541 b717 0341 7025 0241
00000020: e0ae 0141 3181 0041 484f 0341 d41c 0241
00000030: 6edc fa40 17d2 fc40 7438 0441 b05f 0441
00000040: 4158 0241 3066 fb40 c8f4 0241 b600 0441
00000050: 8661 0241 40aa 0441 c076 ff40 14f7 0341
00000060: 1e8f 0241 7aa9 0341 9aee 0341 f98b fc40
00000070: a5b2 0241 c2b0 0041 135e 0541 36cb f640
00000080: deea f840 b27e 0441 c736 0241 8acf 0241
00000090: e20b f940 78b5 f740 827b 0241 7b87 0341
000000a0: 56e9 fb40 75ec 0041 946e f840 060d ff40
000000b0: b5b2 fa40 e509 0241 984d 0241 b8d9 f840
000000c0: 332c 0341 c2f5 fd40 9738 0341 9e35 0241
000000d0: 9944 ff40 d712 0241 c8ce 0141 5a49 f740
000000e0: 01ce f840 bc11 0141 594d ff40 cf4a ff40
000000f0: ea61 0241 6b16 0141 f6ab f840 3645 0241
00000100: 3a66 0341 9496 f940 05d2 fa40 1fa4 0041
00000110: 5d50 fd40 4ebe ff40 fe29 0341 bb1f 0241
00000120: aab6 ff40 444b 0341 b006 0341 909b fd40
00000130: 7d6c 0041 7b8e 0141 e8b2 0141 5c14 0041
00000140: 8934 0241 8a1c 0341 23a0 fe40 e535 fe40
00000150: a06e ff40 9a90 0041 f01a 0141 d9a2 0041
00000160: f903 fc40 166e fe40 d7e1 fb40 4ea7 ff40
00000170: aedb fc40 1a5e 0141 7736 fd40 d6e0 0341
00000180: 87fb ff40 a84a 0141 b13c fc40 f5ee f640
00000190: c842 0041 5521 0041 752b 0341 9629 f940
000001a0: dd3d 0141 7c06 fb40 7345 fb40 cf6a 0341
000001b0: 75d9 f640 05be 0241 cc4a 0341 648c 0041
000001c0: 376b 0041 f788 ee40 d025 0041 0046 0341
000001d0: 3020 0341 2e75 0141 88b3 fb40 129c 0041
000001e0: 34e4 f540 c6e3 0041 8880 0141 38e8 0241
000001f0: a763 fe40 5086 0241 9d42 0541 141b fe40
00000200: cbc2 fd40 0e74 fe40 3607 0341 7d4e 0041
00000210: a444 fc40 0f56 0441 3221 0241 0962 f940
00000220: 0cf5 f640 166a fc40 e4e5 0141 8778 0141
00000230: 7fc2 f840 5846 fa40 0428 ff40 464f f940
00000240: dafe fe40 b950 0241 b0fa fd40 695f fe40
00000250: 8a62 0141 1349 0441 ab66 0041 7d05 0241
00000260: 08b7 f940 9436 0441 bcc9 fa40 4dd8 fd40
00000270: 2b6f ff40 d4ad f740 21a3 f540 9a54 ff40
00000280: 22cf f740 8723 0141 5b4c f840 b3e8 f540
00000290: 28a7 fa40 289d 0341 42ba 0041 ac09 f740
000002a0: 5c8a 0041 0a91 fe40 045c 0041 5e63 f240
000002b0: f06c 0341 627d f940 935b 0241 0fef 0041
000002c0: ce18 fc40 0e7b 0441 e430 ff40 bcef f540
000002d0: 4047 f940 1987 fb40 24d6 fa40 735b fa40
000002e0: 1a8b ff40 32ff f840 602c f840 6fe1 ff40
000002f0: 4616 fd40 ee89 0141 7dd8 ff40 c84b 0041
00000300: 5994 f440 5c40 f840 fbe0 f140 a73a 0241
00000310: 9207 f840 1756 0141 6798 f940 0b3d fc40
00000320: a487 fb40 49c2 fe40 60fe 0041 c8f9 0241
00000330: 4240 0241 5161 0041 56f7 fe40 eaab fd40
00000340: bedf ff40 0d3c fc40 70aa f940 3e6b f840
00000350: aee9 f640 2929 f440 c634 fc40 87eb fe40
00000360: f8e9 f740 112b ff40 a553 f740 98bb fd40
00000370: b0b3 0141 b42d f940 a2d3 f240 a741 fd40
00000380: e673 0141 50d0 f540 c41e f940 1e52 f540
00000390: 6a33 f540 0631 f740 a203 ff40 9a08 f940
000003a0: a0b4 f840 a4ee ff40 5b0b fc40 2c70 ff40
000003b0: 5a35 0141 4f4a f740 483e f940 5a9f f640
000003c0: 7700 f540 cfaf f840 5805 f640 d358 f640
000003d0: 7b85 fa40 fc70 f540 b947 f340 a4a3 fd40
000003e0: f8d0 0141 c3f0 f640 368e f940 5b96 fd40
000003f0: 1ec5 f340 2c0c f740 b6c6 f740 2776 fc40
