KNet/best-model.pt (torch, 103970 bytes, 44 tensors)

weight_ih_l0 f4 [27, 15]
0	0x3c8a349b	0.016870787
1	0x3e745e5e	0.23864123
2	0xbe916c25	-0.2840282
3	0x3de5a308	0.11212736
4	0xbd83e6cd	-0.06440506
5	0x3e4de90d	0.20108433
6	0x3c625776	0.013814798
7	0xbdeb784b	-0.114975534
8	0x3e84e81a	0.2595833
9	0x3e8ea9bd	0.27863875
10	0x3e0e4f96	0.13897547
11	0x3d88bea9	0.066769905
12	0x3d54a311	0.051913325
13	0xbe8e367c	-0.27775943
14	0x3d453a34	0.04815121
15	0x3d4375b1	0.04771966
16	0x3e9828c7	0.2971861
17	0x3e9779a1	0.29584983
18	0x3c242834	0.010019351
19	0x3d424de8	0.04743758
20	0xbe2eee7e	-0.17083165
21	0xbc20648a	-0.009789595
22	0xbe3517f3	-0.17684917
23	0x3e407a5c	0.18796676
24	0x3e80ec05	0.2518007
25	0x3df459fe	0.11931227
26	0x3e469db6	0.193961
27	0xbdae5ab7	-0.08513396
28	0xbca1c057	-0.019745035
29	0x3e82d571	0.25553468
30	0x3c270218	0.01019337
31	0xbe574414	-0.21022063
32	0x3e6d7362	0.23188546
33	0xbe544aac	-0.2073161
34	0xbe5e2ff1	-0.21697976
35	0x3e309c0b	0.17247026
36	0x3e3c9b8e	0.18418714
37	0x3d28d892	0.041222163
38	0x3da7abfc	0.081871
39	0xbb79cc1d	-0.0038116046
40	0x3d6657ac	0.056235954
41	0xbc1e2de3	-0.009654495
42	0x3af680d5	0.0018806705
43	0x3dea506e	0.11441122
44	0x3d493a51	0.04912788
45	0x3e6a4c4d	0.22880669
46	0xbe4e9f28	-0.20177901
47	0x3e327ae2	0.17429689
48	0xbe543f94	-0.20727378
49	0xbe0fafdb	-0.14031927
50	0x3d3931ee	0.045213632
51	0xbdd2c48d	-0.10291395
52	0xbd235916	-0.03987988
53	0x3d84b9d3	0.06480756
54	0xbde4d9d0	-0.11174357
55	0xbe1d59b9	-0.15366258
56	0x3d22d0db	0.03974996
57	0x3d972b17	0.073812656
58	0xbe7eda56	-0.24887976
59	0x3e49ae0e	0.19695303
60	0x3ddc5304	0.107580215
61	0x3e623e80	0.22094154
62	0xbe74e62d	-0.2391593
63	0xbdef3416	-0.116798565
64	0x3da145fa	0.07874675
65	0xbe6c9386	-0.2310315
66	0x3da762fb	0.08173176
67	0x3e21203a	0.1573495
68	0xbe45b8a2	-0.19308713
69	0xbe095491	-0.13411166
70	0x3d955a78	0.07292646
71	0xbc0b5790	-0.008504763
72	0xbd8006e8	-0.06251317
73	0xbdd93cf8	-0.10607332
74	0x3cbf96b5	0.023387292
75	0xbde5c741	-0.11219645
76	0xbda319a4	-0.07963875
77	0xbdc0a6ee	-0.09406839
78	0xbe0043bd	-0.1252584
79	0x3e807107	0.25086233
80	0xbe3f7f86	-0.1870099
81	0x3aeeef24	0.0018229228
82	0xbd633362	-0.055468924
83	0xbd765412	-0.06013877
84	0x3ba5f394	0.005064437
85	0x3e336476	0.17518792
86	0x3dc02d6c	0.093836635
87	0xa0d582d7	-3.6170186e-19
88	0x3d818011	0.06323255
89	0x3e81095f	0.25202462
90	0x3da04945	0.07826475
91	0xbd5bc2a2	-0.053652413
92	0x3d033e7e	0.03204202
93	0x3e585639	0.21126641
94	0x3e7b88e7	0.24563943
95	0xbe2e73bf	-0.17036341
96	0xbe16dd35	-0.14732821
97	0x3d2edeef	0.042693075
98	0xbd2d0d19	-0.04224882
99	0xbe2c6d5b	-0.16838591
100	0xbe4950a7	-0.19659673
101	0x3e044d46	0.12920102
102	0xbd803758	-0.06260556
103	0x3e15a79a	0.14614716
104	0x3e10f6e5	0.14156683
105	0xbd35d53b	-0.044392806
106	0x3d4ccb49	0.049998555
107	0xbbe18086	-0.0068817763
108	0x3e86d521	0.2633448
109	0x3d89921c	0.06717321
110	0x3cb6aadb	0.022298267
111	0xbe6e83be	-0.23292443
112	0xbe663c2d	-0.22483893
113	0x3e0711dd	0.13190408
114	0xbe337295	-0.17524178
115	0xbe586325	-0.2113157
116	0x3c68f0ee	0.014217598
117	0x3d062d64	0.03275813
118	0x3dc14470	0.094368815
119	0xbe04a304	-0.1295281
120	0xbe8cfa32	-0.27534634
121	0x3e77e4af	0.2420833
122	0xbe5c2308	-0.21497738
123	0x3dc77d2a	0.0974067
124	0xbd9b465f	-0.075817816
125	0xbc681438	-0.014164977
126	0xbe543074	-0.20721608
127	0xbe00e14a	-0.12585941
128	0x3e4ad980	0.19809532
129	0x3e58739e	0.21137854
130	0x3d947c81	0.0725031
131	0x3e8b2c0e	0.2718205
132	0xbe37f5f1	-0.17964913
133	0xbdd1f628	-0.10252029
134	0xbe35caa8	-0.17753088
135	0x3e0f6b9c	0.14005893
136	0xbe8c8995	-0.27448717
137	0x3db67d70	0.08910644
138	0xbd6017fb	-0.05471037
139	0x3c12d883	0.008962753
140	0xbccca534	-0.024981119
141	0x3e4395dd	0.19100137
142	0x3e831133	0.2559906
143	0xbe0e4849	-0.13894762
144	0x3e225e07	0.15856181
145	0x3e4ff826	0.20309505
146	0x3e76abed	0.24089022
147	0x3e803504	0.25040448
148	0x3de8b172	0.1136197
149	0xbd604eae	-0.054762535
150	0x3e89c100	0.2690506
151	0x3e8cc864	0.27496636
152	0x3d89fd10	0.06737721
153	0xbe6e2d62	-0.232595
154	0x3d655f95	0.055999357
155	0x3e8387a0	0.2568941
156	0xbb859a52	-0.0040772343
157	0xbe48a6ee	-0.19594929
158	0xbe8f17e6	-0.2794792
159	0x3dafe2e3	0.08588197
160	0x3e091694	0.13387519
161	0xbe0bc5e6	-0.13649711
162	0xbdf6bfda	-0.120483115
163	0x3e229409	0.15876783
164	0xb5b0e4b2	-1.3179581e-06
165	0x3df81638	0.12113613
166	0xbe099794	-0.13436729
167	0xbdb16d34	-0.08663407
168	0x3e62cc4a	0.22148243
169	0x3e4f53de	0.20246837
170	0xbe32b8c3	-0.17453294
171	0xbe69f9ae	-0.22849151
172	0xbe921812	-0.2853399
173	0xbda07de6	-0.07836513
174	0xbe5d9aea	-0.21641126
175	0x3c106b07	0.00881458
176	0xbddf9511	-0.10917104
177	0xb7c4e8be	-2.34734e-05
178	0x3cfcbe77	0.03085254
179	0x3ce30c2e	0.027715769
180	0x3e63e10d	0.22253819
181	0xbe2214bb	-0.1582822
182	0x3e3d4ab7	0.18485533
183	0x3e8c74da	0.274329
184	0xbce87cf8	-0.028379902
185	0xbe247000	-0.1605835
186	0xbd4e891f	-0.050423738
187	0xbd519c4d	-0.05117445
188	0x3caf1769	0.021373468
189	0xbe968913	-0.29401454
190	0x3e71e521	0.23622562
191	0xbdb4153e	-0.08793114
192	0xbdca95aa	-0.098918274
193	0xbdf2636e	-0.11835371
194	0xbe167032	-0.14691237
195	0x3e729ecf	0.23693393
196	0xbe33868f	-0.17531799
197	0x3d163356	0.03667005
198	0xbd17198d	-0.0368896
199	0x3d851bcb	0.06499442
200	0xbe763365	-0.24043043
201	0xbbe90f54	-0.007112423
202	0x3de070c2	0.10959007
203	0xbc41ec7b	-0.0118361665
204	0x3d9fa177	0.07794469
205	0x3e5d7623	0.21627097
206	0xbdee6592	-0.11640467
207	0xbe537e4b	-0.20653646
208	0xbd854561	-0.065073736
209	0x3d57de50	0.052702248
210	0x3d14c0a1	0.036316518
211	0xbe3d8b99	-0.18510284
212	0xbe8b05d4	-0.27152884
213	0xbe193423	-0.14961295
214	0x3e58f334	0.21186525
215	0xbe9558a9	-0.29169205
216	0xbc9a6aed	-0.018849814
217	0xbda5a336	-0.08087771
218	0xbd7fb09d	-0.06242429
219	0xbe3993e4	-0.18122822
220	0xbd7c2d3b	-0.061566573
221	0xbe2f5549	-0.17122377
222	0x3e1bd0a1	0.15216304
223	0xbe3538fb	-0.17697518
224	0x3e856695	0.26054826
225	0xbe6fc9c7	-0.23416816
226	0xbe3b448d	-0.18287869
227	0x3e15c30a	0.14625183
228	0xbdb63432	-0.08896674
229	0xbe523334	-0.20527345
230	0xbd543a53	-0.051813435
231	0x3d102a48	0.035196573
232	0xbe309419	-0.17243995
233	0xbd04ddd0	-0.0324381
234	0xbdebc3ca	-0.11511953
235	0xbe20ad78	-0.15691173
236	0x3e37fa2c	0.17966527
237	0x3e43e3e5	0.19129904
238	0x3d11fd68	0.035642058
239	0x3e057488	0.13032734
240	0x3e463ed2	0.19359902
241	0x3ddd197c	0.107958764
242	0x3dbf1909	0.09330947
243	0x3e564131	0.20923306
244	0xbe507caf	-0.20360063
245	0xbe0e5069	-0.13897862
246	0x3b9273fe	0.0044693938
247	0x3e73e390	0.23817277
248	0xbe2d2de6	-0.1691204
249	0xbd3bec32	-0.04587955
250	0x3e8db823	0.27679548
251	0xbd6ae9b8	-0.057351798
252	0xbe598cdc	-0.2124514
253	0x3d08cde5	0.03339948
254	0x3ddd2b81	0.10799313
255	0xbdc0398f	-0.093859784

weight_hh_l0 f4 [27, 9]
0	0xbd5792eb	-0.052630346
1	0xbd0e9a9e	-0.034815423
2	0xbcb1b075	-0.021690587
3	0x3c7e450a	0.01551939
4	0x3e82d66f	0.25554225
5	0xbe276b09	-0.16349424
6	0x3e95f9b4	0.2929207
7	0x3df748b9	0.120744176
8	0xbe642717	-0.22280537
9	0x3ca2f764	0.019893356
10	0x3e2f4405	0.17115791
11	0x3d9bbf4f	0.076048486
12	0x3da21397	0.07913893
13	0xbe413c0c	-0.18870562
14	0x3c7f2c10	0.01557447
15	0xbc1cc75f	-0.009569018
16	0xbc61644f	-0.013756826
17	0xbe841ce3	-0.2580329
18	0xbe01402d	-0.12622137
19	0xbdc928fa	-0.09822269
20	0x3dd96551	0.10615028
21	0xbd96bf62	-0.07360722
22	0xbe7b1db1	-0.24523045
23	0xbe53f162	-0.20697549
24	0xbd221084	-0.03956653
25	0x3e092d55	0.13396199
26	0xbe1125c4	-0.14174563
27	0x3dc02256	0.09381549
28	0x3c6e42ad	0.014542264
29	0x3e706250	0.23475003
30	0xbe391028	-0.1807257
31	0xbe5bc027	-0.21460019
32	0xbe276ecd	-0.16350861
33	0xbcc5ffa0	-0.024169743
34	0x3e0f81c0	0.1401434
35	0x3ccd8b4f	0.025090842
36	0xbdb1dd46	-0.08684783
37	0xb96da5c3	-0.00022663832
38	0xbd8ffe7e	-0.070309624
39	0xbce21730	-0.027598947
40	0xbe57e601	-0.21083833
41	0xbe372d70	-0.17888427
42	0x3e51f79d	0.20504613
43	0x3da83704	0.082136184
44	0xbe08b7a6	-0.13351306
45	0xbbb71b3d	-0.005587964
46	0x3e61b8e0	0.2204318
47	0xba986a84	-0.0011628424
48	0xbcf8e757	-0.030383749
49	0xbe549fef	-0.20764135
50	0xbe68783e	-0.22702119
51	0x3e206c80	0.1566639
52	0x3df68f53	0.12039056
53	0xbd0af436	-0.033924304
54	0xbe0f6c04	-0.14006048
55	0xbdf2383f	-0.11827134
56	0xbe7d1575	-0.24715216
57	0x3d10c678	0.035345525
58	0xbe8a36dc	-0.2699498
59	0xbe0267a6	-0.12734851
60	0x3cef6a29	0.029225426
61	0x3deb2b21	0.114828356
62	0x3e2e8d6d	0.17046137
63	0x3e38b741	0.18038656
64	0x3e23b836	0.1598824
65	0xbd21bd81	-0.039487366
66	0xbd22634d	-0.03964548
67	0x3cdeecf3	0.027212596
68	0x3d9816ef	0.07426249
69	0x3e5bbcc7	0.21458732
70	0xbda2e898	-0.0795452
71	0x3da1c8e8	0.07899648
72	0xbe3a90c2	-0.18219283
73	0xbe7c38d1	-0.24631049
74	0x3e22a787	0.15884219
75	0xbdf98c86	-0.12185006
76	0xbdd66f70	-0.10470474
77	0xbd1df3df	-0.03856265
78	0xbe7951d4	-0.24347621
79	0xbdc2dd94	-0.09514919
80	0xbe99ea6a	-0.30061656
81	0xbe1d78b3	-0.15378074
82	0xbde06183	-0.10956099
83	0xbda8c481	-0.08240605
84	0xbe635185	-0.22199066
85	0x3e379b13	0.1793025
86	0xbe436c61	-0.19084312
87	0xbe828fc4	-0.2550031
88	0x3de14d45	0.11001066
89	0x3e4e7b63	0.20164256
90	0xbe687e5b	-0.22704451
91	0x3e00e1b5	0.125861
92	0x3e34b8e3	0.17648654
93	0xbdfba99e	-0.12288211
94	0x3cea276a	0.028583247
95	0x3e033e7f	0.12816809
96	0x3c564868	0.013078786
97	0xbde48165	-0.111574925
98	0x3b822212	0.0039713467
99	0xbe6b641b	-0.22987406
100	0x3e23d60f	0.15999626
101	0xbe44d39b	-0.19221346
102	0x3deb3ff1	0.11486805
103	0x3e83f6e9	0.25774315
104	0xbdc85b9a	-0.097830966
105	0xbd77954c	-0.060445115
106	0xbdada8a2	-0.0847943
107	0x3d204bf0	0.03913492
108	0x3e71e900	0.23624039
109	0xbe0da76f	-0.13833402
110	0x3d8b04ac	0.067880005
111	0x3d438e77	0.047743287
112	0xbe509582	-0.20369533
113	0x3e01789a	0.12643662
114	0x3cba6949	0.022755282
115	0xbe33c319	-0.17554893
116	0x3e617ff8	0.22021472
117	0x3e6edb6e	0.23325893
118	0x3e7e50d3	0.2483552
119	0xbd5b1131	-0.053483192
120	0x3db684da	0.08912058
121	0xbd5807c8	-0.052741796
122	0xbd86f67a	-0.065899804
123	0xbd9e221e	-0.07721351
124	0x3e645e39	0.22301568
125	0xbe3077bd	-0.17233177
126	0xbe62a400	-0.22132874
127	0xbda14da7	-0.07876139
128	0x3e07122f	0.1319053
129	0xb73354ed	-1.0689005e-05
130	0xbdd149a9	-0.10219128
131	0xbe7b414b	-0.24536626
132	0xbd848dac	-0.06472334
133	0x3da61fd2	0.08111538
134	0xbe263296	-0.16230235
135	0xbe864d9c	-0.26231086
136	0xbd899fcf	-0.06719934
137	0x3e3ee2a1	0.1864114
138	0xbe3a6dcd	-0.18205948
139	0x3e8ccbaa	0.27499133
140	0xbe0715f6	-0.13191971
141	0xbd0a6c7b	-0.03379486
142	0x3dccc8c9	0.09999234
143	0xbbe1f201	-0.006895304
144	0x3c46cae0	0.01213333
145	0xbe0b8a14	-0.13626891
146	0xbd127ecd	-0.035765458
147	0xbdf9a261	-0.121891744
148	0x3dbe860d	0.09302912
149	0xbdf4ed33	-0.11959305
150	0xbe4c479f	-0.19949196
151	0xbe6bff5c	-0.2304663
152	0xbc690c1a	-0.014224077
153	0x3d91a1a2	0.07110907
154	0x3e52f640	0.2060175
155	0xbdb500e0	-0.088380575
156	0xbe36c58c	-0.17848796
157	0xbe4d8ce8	-0.20073283
158	0x3dd8768a	0.105694845
159	0xbd8967f3	-0.0670928
160	0xbe44051a	-0.19142571
161	0xbe19f0a1	-0.15033199
162	0xbd3582a8	-0.044314057
163	0x3eaf9f02	0.34301
164	0xbd93f143	-0.072237514
165	0x3e5691c5	0.20954044
166	0x3cd5a129	0.026077824
167	0xbe932c7c	-0.28744876
168	0xbe80e20e	-0.25172466
169	0xbdd5a60a	-0.1043206
170	0xbe81fa46	-0.25386256
171	0x3e594f42	0.2122164
172	0x3e6c018c	0.23047465
173	0xbe3d86ec	-0.185085
174	0xbe303fd3	-0.17211847
175	0xbe9344d8	-0.2876346
176	0xbdf03d6b	-0.117304645
177	0x3e863dad	0.2621893
178	0xbea3f29a	-0.32021028
179	0xbd2c9e28	-0.042143017
180	0x3e6bf39f	0.23042153
181	0xbe3f7c0b	-0.18699662
182	0x3e791173	0.24323063
183	0x3ce4c968	0.02792807
184	0x3e6e0986	0.2324582
185	0xbe90cb98	-0.2828033
186	0xbe0424d1	-0.1290467
187	0xbe87cd80	-0.26523972
188	0x3e144e1f	0.14482926
189	0xbe095df7	-0.13414751
190	0xbea3380b	-0.31878695
191	0xbe6c373e	-0.23067948
192	0x3e2edf71	0.17077424
193	0x3e1e477a	0.15456954
194	0x3dc5363a	0.096294835
195	0xbe0a194b	-0.13486211
196	0x3c2132f7	0.009838811
197	0x3e15a756	0.14614615
198	0xbe4d877a	-0.20071211
199	0x3e7c83d1	0.24659659
200	0x3bcd6899	0.0062685725
201	0xbe7cbf78	-0.24682415
202	0xbd59cc68	-0.053173453
203	0xbdea7b56	-0.11449306
204	0x3db248d6	0.087052986
205	0xbd765a31	-0.060144607
206	0xbe96e518	-0.2947166
207	0xbde47059	-0.11154241
208	0xbd670bb6	-0.056407653
209	0xbd44750e	-0.047963195
210	0x3e720b8f	0.23637222
211	0x3d2ee303	0.042696964
212	0x3de483ad	0.11157928
213	0x3df9120f	0.121616475
214	0x3e587083	0.2113667
215	0x3ea35e15	0.31907716
216	0x3c1393a2	0.009007366
217	0x3e2a635b	0.16639464
218	0xbe4c831f	-0.19971894
219	0xbe708635	-0.23488696
220	0x3e9653ea	0.29360896
221	0xbe8f4c45	-0.27987877
222	0x3e9ca28f	0.30592772
223	0x3e80c874	0.25152934
224	0x3e6a3f77	0.22875772
225	0xbe25eb9a	-0.16203156
226	0x3e791961	0.24326088
227	0x3d959271	0.07303322
228	0x3e33d134	0.17560273
229	0xbc98b331	-0.018640133
230	0x3e5026a1	0.20327236
231	0xbda703b6	-0.08155005
232	0x3e8b0aa4	0.27156556
233	0x3e4099c4	0.18808657
234	0xbd09cb2a	-0.033641018
235	0xbe831fd1	-0.25610211
236	0x3e9faccf	0.3118653
237	0x3e8ec9c3	0.27888307
238	0xbe86422a	-0.26222354
239	0x3e2c0051	0.16796996
240	0xbe4c0544	-0.19923884
241	0x3e277f38	0.16357124
242	0x3e9e124b	0.3087333

bias_ih_l0 f4 [27]
0	0x3e9c7cbb	0.30563912
1	0xbb27a2fc	-0.0025579324
2	0x3dc4bde0	0.09606528
3	0x3d4b9557	0.04970297
4	0x3b3069ae	0.0026918459
5	0x3d0b03e7	0.03393927
6	0xbe6eb812	-0.23312405
7	0xbe9d5f5b	-0.30736813
8	0xbe5dac76	-0.2164782
9	0xbe2f60c0	-0.17126751
10	0xbe5d5854	-0.21615726
11	0xbdb20cc0	-0.08693838
12	0xbdd4eced	-0.103967525
13	0x3c17efb8	0.009273462
14	0x3e91dd38	0.2848909
15	0xbd0c233f	-0.0342133
16	0xbe5d27de	-0.2159724
17	0xbe71cc51	-0.23613097
18	0x3e4b64c1	0.19862653
19	0xbd1c4440	-0.038151026
20	0xbe983500	-0.29727936
21	0xbea47ec5	-0.32127967
22	0x3e7fc6c1	0.24978162
23	0xbdefcca9	-0.11708958
24	0xbd977b6b	-0.07396587
25	0x3e198360	0.14991522
26	0x3e35c8a9	0.17752327

bias_hh_l0 f4 [27]
0	0x3e41925f	0.18903492
1	0x3d1c2a8c	0.038126513
2	0x3dbc171c	0.09184095
3	0xbd9df4db	-0.07712718
4	0x3d3a6f73	0.045516443
5	0x3e7e85f0	0.2485578
6	0x3e6b15a8	0.2295748
7	0xbdb56df0	-0.088588595
8	0x3e79dfbb	0.24401753
9	0xbe0cab8a	-0.13737312
10	0xbd8c7630	-0.0685848
11	0x3e83dc43	0.25753984
12	0x3d9adf2d	0.07562099
13	0xbdfbc93a	-0.1229424
14	0xbe56c769	-0.20974506
15	0xbe96f229	-0.2948163
16	0xbb5f1dfc	-0.0034044972
17	0xbe25bb79	-0.16184796
18	0x3e900112	0.28125817
19	0xbd8e0c5b	-0.0693595
20	0xbd608966	-0.054818533
21	0x3e18eced	0.1493413
22	0x3d7a4c1d	0.061107744
23	0x3d841698	0.06449622
24	0xbc2119f5	-0.009832849
25	0x3e3375e8	0.17525446
26	0x3e40670e	0.18789312

weight_ih_l0 f4 [27, 24]
0	0xbe719301	-0.23591234
1	0xbd478577	-0.048711266
2	0xbe083e51	-0.13305022
3	0xbe800475	-0.250034
4	0xbba1d35f	-0.0049385275
5	0x3e821f7a	0.2541464
6	0xbe8f5e3d	-0.28001586
7	0xbe83130e	-0.25600475
8	0xbd98c25e	-0.074589476
9	0x3e15f03e	0.14642426
10	0xbb940626	-0.0045173345
11	0x3e1877f9	0.14889516
12	0xbe898329	-0.2685788
13	0x3d589f6e	0.05288642
14	0xbcc34bd8	-0.023839876
15	0x3cf074a7	0.0293525
16	0x3dfc1880	0.123093605
17	0xbe6f019f	-0.23340462
18	0x3e04e3ae	0.12977478
19	0x3e80fa97	0.25191185
20	0x3dea6de1	0.11446739
21	0xbe600444	-0.21876627
22	0x3d53e45f	0.051731464
23	0x3de01d87	0.10943132
24	0xbe33fbad	-0.17576475
25	0xbe989c33	-0.2980667
26	0x3e853842	0.26019484
27	0x3e17239a	0.14759675
28	0x3e1e0121	0.15430118
29	0x3e1771c0	0.14789486
30	0xbe098459	-0.13429393
31	0xbdfb26c2	-0.12263252
32	0xbca472ad	-0.020074213
33	0xbc933692	-0.017970357
34	0xbe565fdb	-0.20935003
35	0x3c149d0a	0.009070644
36	0xbd637355	-0.05552991
37	0x3e71877f	0.23586844
38	0xbcff0121	-0.031128468
39	0x3c2e74aa	0.010647932
40	0x3d05f03e	0.032699816
41	0x3d646c56	0.05576738
42	0x3da07eef	0.07836711
43	0x3e1b8bcc	0.15190047
44	0x3d95a196	0.07306211
45	0xbd8b6deb	-0.068080746
46	0xbe98a276	-0.29811448
47	0xbe4d9d42	-0.2007952
48	0x3e927c5e	0.2861051
49	0xbce0b59c	-0.027430348
50	0xbe8cc3bd	-0.27493086
51	0xbe6a3dfd	-0.22875209
52	0xbe1dc50e	-0.15407202
53	0x3e58d4cc	0.21174926
54	0xbcd8368b	-0.026393196
55	0x3dd9ad96	0.10628812
56	0xbd0deea8	-0.03465143
57	0xbd86764c	-0.06565532
58	0x3c7636a4	0.015027676
59	0x3e6001b9	0.21875657
60	0x3e292078	0.16516292
61	0x3e1411b8	0.14459884
62	0xbdb68bf8	-0.08913416
63	0xbe0765b3	-0.13222389
64	0xbd8263b4	-0.06366673
65	0xbe2ec610	-0.17067742
66	0xbea236fe	-0.3168258
67	0xbddf7fdf	-0.10913061
68	0x3e41bc70	0.1891954
69	0x3dd53ca1	0.10411955
70	0xbe2a1c59	-0.16612376
71	0xbe4c27a1	-0.19936992
72	0x3e3118df	0.17294644
73	0x3e5a7baa	0.21336237
74	0xbc6da927	-0.014505661
75	0xbd74f3fb	-0.05980299
76	0xbe312233	-0.17298202
77	0x3dea6fa5	0.11447076
78	0xbcda8598	-0.02667503
79	0x3e081b71	0.13291718
80	0xbce928e2	-0.028461877
81	0xbd870dc7	-0.06594425
82	0x3c173f87	0.009231455
83	0xbe2d5fb1	-0.16931035
84	0x3e7ab95e	0.24484774
85	0xbda84d2b	-0.082178436
86	0x3d487405	0.04893877
87	0xbe184adf	-0.14872311
88	0x3a89115a	0.0010457442
89	0xbde066b4	-0.10957089
90	0xbe5f407a	-0.2180194
91	0x3e565d0c	0.20933932
92	0xbb5d8c5f	-0.0033805592
93	0x3e3e46c1	0.18581678
94	0xbe95b117	-0.2923667
95	0x3df4f4d5	0.119607605
96	0x3e4b6d1d	0.19865842
97	0x3dab925b	0.083775245
98	0xbe5c4c21	-0.21513416
99	0x3d85f0b9	0.06540055
100	0xbdbb352f	-0.09141003
101	0xbdcd2aa4	-0.10017899
102	0x3d1be639	0.038061354
103	0x3e0330e3	0.12811618
104	0x3e4d7567	0.20064317
105	0xbea35a11	-0.31904653
106	0xbe316066	-0.1732193
107	0x3d98fc9e	0.07470058
108	0x3c5d1955	0.013494809
109	0xbdbde8d3	-0.09272923
110	0x3dbe1512	0.092813626
111	0xbd1abb5e	-0.037776344
112	0x3e14e3b6	0.1453999
113	0xbcb2ae77	-0.021811707
114	0xbe002c67	-0.12516938
115	0xbe60ccf4	-0.21953183
116	0x3db7ebd2	0.08980526
117	0xbe6c041a	-0.2304844
118	0xbea63716	-0.32463902
119	0xbe6f48a9	-0.23367561
120	0x3dfc7488	0.12326914
121	0x3ca50cd9	0.020147728
122	0xbe817f60	-0.25292492
123	0x3d74b77d	0.0597453
124	0x3dfec3a2	0.12439658
125	0x3d5022c2	0.050814398
126	0xbe91dcdf	-0.28488824
127	0x3d9a3749	0.07530076
128	0x3dc3961c	0.095501155
129	0xbd4c6f7d	-0.04991101
130	0xbe679873	-0.22616749
131	0x3e8966d1	0.26836255
132	0xbe1a9bb1	-0.15098454
133	0xbe8b6da8	-0.272321
134	0x3da3029e	0.079594836
135	0x3dcb3f3d	0.09924171
136	0x3e64d83c	0.22348112
137	0xbda51264	-0.08060148
138	0x3cff3d01	0.031157019
139	0xbe88e7ff	-0.267395
140	0xbe505161	-0.20343544
141	0xbe822a48	-0.25422883
142	0xbe4402cb	-0.1914169
143	0x3e0e9d6a	0.13927236
144	0xbe1f450f	-0.15553688
145	0x3ce4d2f4	0.027932622
146	0xbe156186	-0.14587983
147	0xbe9ad770	-0.3024249
148	0x3e136c78	0.14396846
149	0xbccda1ae	-0.025101509
150	0xbde07801	-0.10960389
151	0xbda591f2	-0.080844775
152	0x3e38e168	0.18054736
153	0x3d207801	0.039176945
154	0xbe75c4d2	-0.24000862
155	0x3e586cf5	0.21135314
156	0xbe1a88c3	-0.15091233
157	0x3da38f91	0.079863675
158	0xbd8ca259	-0.06866903
159	0xbdbd7935	-0.09251634
160	0x3e4d153a	0.20027629
161	0x3e9d0cfc	0.3067397
162	0xbe1b058c	-0.15138835
163	0x3e5f3a97	0.21799694
164	0x3e115018	0.1419071
165	0x3d9b28a1	0.07576109
166	0x3e47b58d	0.1950285
167	0x3d6b50f6	0.057450257
168	0xbcf8289d	-0.030292803
169	0xbe0807a6	-0.13284168
170	0xbb9e39f6	-0.004828687
171	0xbe312fe5	-0.17303427
172	0xbdd82350	-0.1055361
173	0xbdf039f5	-0.117298044
174	0xbd024db3	-0.03181238
175	0xbcedaed7	-0.029014034
176	0x3d7843ce	0.06061154
177	0x3db6de2b	0.08929094
178	0xbe54c37d	-0.20777698
179	0xbd98d950	-0.07463324
180	0x3d3c4a9b	0.045969587
181	0x3e131d93	0.1436675
182	0xbe26e4e0	-0.16298246
183	0x3e028ff3	0.12750225
184	0xbdf36957	-0.11885326
185	0x3beea290	0.0072825626
186	0x3d06f7d0	0.032951176
187	0x3c82d733	0.015971756
188	0xbdd363a7	-0.103217416
189	0xbd8df8dc	-0.06932232
190	0xbdc5825d	-0.096440054
191	0xbe3c1a02	-0.18369296
192	0xbe157259	-0.14594401
193	0xbd20bba9	-0.039241467
194	0xbe3dec2a	-0.1854712
195	0xbe61a78e	-0.22036573
196	0x3d3d47d0	0.046211064
197	0x3e867f16	0.26268834
198	0xbe200aba	-0.15629092
199	0x3cd6d85b	0.026226213
200	0xbe14732e	-0.14497063
201	0x3bb5d184	0.005548658
202	0xba421519	-0.00074036565
203	0x3e85b3d4	0.2611376
204	0x3e4cbc23	0.19993643
205	0xbe18da39	-0.14926995
206	0x3e334aa7	0.17508946
207	0x3a9e0a3b	0.0012057492
208	0x3e415603	0.18880467
209	0xbe2bc175	-0.16773017
210	0xbe83e027	-0.25756952
211	0xbe4cece3	-0.2001224
212	0xbe8205d8	-0.25395083
213	0x3d7a0c3a	0.061046816
214	0x3e5d69b0	0.21622348
215	0xbe2bf992	-0.16794422
216	0x3e5f1e2d	0.21788855
217	0x3db6ad8a	0.08919819
218	0xbe44e372	-0.19227389
219	0xbde33dc7	-0.110957675
220	0xbe443258	-0.1915983
221	0xbe0ddfab	-0.13854854
222	0xbe93c2f4	-0.28859675
223	0x3df33938	0.11876148
224	0x3ea0ed9d	0.31431285
225	0x3e2470ea	0.16058698
226	0xbc33ba4c	-0.01096971
227	0xbdef579d	-0.11686633
228	0x3e09384b	0.1340038
229	0x3e29a3b5	0.16566356
230	0xbcda70a4	-0.02666504
231	0x3e875424	0.26431382
232	0x3d6076c1	0.054800753
233	0x3e5660fb	0.20935433
234	0xbd974043	-0.07385304
235	0xbde0692c	-0.1095756
236	0xbe4fa731	-0.20278622
237	0xbdb281a3	-0.087161325
238	0x3e14e3f0	0.14540076
239	0xbe96a307	-0.29421255
240	0xbea09e61	-0.31370834
241	0xbdc714a2	-0.09720732
242	0xbe284a0a	-0.16434494
243	0x3e40e3aa	0.18836847
244	0x3d776a14	0.0604039
245	0xbe9054df	-0.28189752
246	0x3e77fe92	0.24218205
247	0x3e2c3df3	0.16820507
248	0x3e6ad7b0	0.22933841
249	0xbe9f0589	-0.3105891
250	0x3e6e150a	0.23250213
251	0xbe87765d	-0.26457492
252	0x3e75b396	0.23994288
253	0xbe5f4035	-0.21801837
254	0xbc2378e9	-0.009977558
255	0x3c3bb706	0.01145721

weight_hh_l0 f4 [27, 9]
0	0xbe380e67	-0.17974244
1	0x3e7d1375	0.24714454
2	0xbe539ded	-0.20665713
3	0xbdc8a033	-0.097961806
4	0xbe5b6198	-0.21423948
5	0x3e177d3c	0.14793867
6	0x3e864a72	0.26228672
7	0x33a2cebd	7.581318e-08
8	0x3ce2e9db	0.027699402
9	0x3d8efaa8	0.06981403
10	0xbe81a499	-0.2532089
11	0xbd190c3a	-0.037365176
12	0xbdeb3a51	-0.11485732
13	0x3c0587ad	0.008150023
14	0xbe4818e9	-0.19540752
15	0xbe37bec8	-0.17943871
16	0xabaf57eb	-1.24589e-12
17	0xbe83fbdc	-0.2577809
18	0x3e930a7b	0.28718933
19	0x3e5e24bf	0.21693705
20	0x3db8c4d2	0.090219155
21	0xbd1f0a1d	-0.038828004
22	0xbdeef52d	-0.11667857
23	0xbdfd699a	-0.123736575
24	0x3e7d038d	0.24708386
25	0x26d22ea3	1.4584318e-15
26	0x3da59105	0.08084301
27	0x3e4db0c7	0.20086966
28	0x3e3c7679	0.18404569
29	0xbdea9851	-0.11454833
30	0x3c127183	0.008938196
31	0x3de90ab3	0.11378994
32	0x38b56e4f	8.651299e-05
33	0x3e813456	0.25235242
34	0xbe838a6c	-0.25691545
35	0xbd9631b8	-0.07333702
36	0x3e8659a6	0.2624027
37	0x3dbe0c14	0.092796475
38	0xbe6848b7	-0.22683989
39	0xbe64b12b	-0.22333209
40	0xbda37fbd	-0.079833485
41	0x3d9d1a10	0.07670987
42	0x3d26922f	0.040666755
43	0x3e680e80	0.22661781
44	0xbc70da36	-0.014700463
45	0x399c69e9	0.00029833548
46	0xbe003f4b	-0.12524144
47	0xbe16d06d	-0.14727946
48	0xbd9b5bbb	-0.075858556
49	0xbe7b4255	-0.24537022
50	0x3e47d6c4	0.1951552
51	0x3de2d543	0.11075833
52	0xbe517cd4	-0.20457774
53	0x3ddc8467	0.10767441
54	0xbdf000c5	-0.11718897
55	0xa00ba457	-1.1828133e-19
56	0xbe25343c	-0.16133207
57	0x3e37c9d6	0.17948088
58	0x3d7c269c	0.06156026
59	0xbd2971e4	-0.04136838
60	0xbe0ed638	-0.13948905
61	0xbd6bfb09	-0.057612453
62	0xbbebf055	-0.0072002807
63	0x3e14d58f	0.14534591
64	0xbd452a3f	-0.048135992
65	0x3ca60aa0	0.020268738
66	0x3dea3eee	0.11437784
67	0xbe81018a	-0.25196487
68	0xbb38ff53	-0.0028228357
69	0x3e2a5a52	0.16636017
70	0x3e3ac2bd	0.1823835
71	0x3e74bc81	0.23900034
72	0xbe54fe82	-0.20800212
73	0xba1d7a76	-0.0006007323
74	0x3dd101c1	0.10205413
75	0xbe097b8d	-0.13426037
76	0xbe1f27c3	-0.15542512
77	0xbbfd1c6c	-0.0077243354
78	0x3d9f71b0	0.07785356
79	0x3e008086	0.12549028
80	0x3e3fac6a	0.18718114
81	0xbe777be9	-0.24168362
82	0xbe4aefca	-0.19818035
83	0x3e05a32a	0.13050523
84	0xbd619462	-0.05507315
85	0xbde25a5b	-0.1105239
86	0xbdbd9036	-0.09256022
87	0xbcef6774	-0.029224135
88	0x3b09d84c	0.0021033464
89	0x3e585c64	0.21128994
90	0x3bd3ea5b	0.0064671463
91	0xbe6924d6	-0.22767958
92	0xbdcff610	-0.101543546
93	0xb6ee0d73	-7.0945184e-06
94	0x3e5c01a3	0.21485
95	0x3e4f1e38	0.20226371
96	0xbe01971f	-0.12655304
97	0x3e2d01b1	0.16895176
98	0x3e93fd4f	0.28904197
99	0xbe125b3c	-0.14292616
100	0x3e7bce66	0.24590454
101	0xbe841dd3	-0.25804004
102	0x3e30708b	0.17230432
103	0xbe0354be	-0.12825295
104	0x3cca2944	0.02467788
105	0xbcb0b389	-0.021569984
106	0xbddd2b4c	-0.10799274
107	0x3d3c3017	0.0459443
108	0x3d358429	0.04431549
109	0x3dcbb46b	0.09946521
110	0xbd76d5cc	-0.060262486
111	0xb956c8fd	-0.00020483504
112	0xbdf97126	-0.121797845
113	0x3e1f7fe5	0.15576132
114	0xbc1339ed	-0.008985979
115	0x3e1a0a18	0.15042913
116	0xbca44451	-0.020052107
117	0xbcf18cba	-0.029486049
118	0x3e738456	0.23780951
119	0xbd28800d	-0.041137744
120	0xb88c7bcb	-6.6987785e-05
121	0x3dde573f	0.108564846
122	0xbe03a645	-0.12856396
123	0x3d21301b	0.039352518
124	0xbba5bece	-0.005058146
125	0x3e9247f4	0.2857052
126	0x3c3027b9	0.010751658
127	0xbca50c56	-0.020147484
128	0x3e6f5b47	0.23374663
129	0xbd96eff7	-0.073699884
130	0x3c443761	0.011976094
131	0x3e843ea4	0.2582904
132	0xbce271ed	-0.027642215
133	0x3d869e1f	0.06573128
134	0xbcdd389b	-0.02700453
135	0xbd2894f4	-0.041157678
136	0xbdfd315a	-0.12362929
137	0x3e748f72	0.23882845
138	0xbd2f169d	-0.042746175
139	0x3d7eacb6	0.06217643
140	0xbdb87169	-0.09006006
141	0xbdd43d4f	-0.10363256
142	0x3232d3f8	1.040916e-08
143	0xbe930721	-0.28716376
144	0x3d4888f9	0.048958752
145	0xa0c8fac5	-3.4047263e-19
146	0xbd6c5b61	-0.057704333
147	0x36d29450	6.2757535e-06
148	0xbcc002cf	-0.02343884
149	0xbe3ad967	-0.18246995
150	0xbe094a2e	-0.13407204
151	0x3da67c0a	0.08129127
152	0xbd92c822	-0.071670786
153	0xbddd095f	-0.10792803
154	0xbe63adc0	-0.22234249
155	0x3c7d0387	0.0154427355
156	0x3e241736	0.1602448
157	0x3da0a5e1	0.07844139
158	0xbcd2a76c	-0.025714599
159	0x3e51192a	0.20419756
160	0xbd4f8b58	-0.050669998
161	0x3e847da2	0.258771
162	0x3e1f038e	0.155287
163	0x3c9b47af	0.01895508
164	0x3e35668b	0.17714898
165	0xbe3a8a28	-0.18216765
166	0xbe187589	-0.14888586
167	0x3d5e1fad	0.054229427
168	0xbde81e87	-0.11333948
169	0x3e85797e	0.26069254
170	0x3d59b6df	0.053152915
171	0x3bc7b4b8	0.0060945414
172	0xbcbe3b91	-0.023221763
173	0xbe0d004f	-0.13769649
174	0xbd1dfd69	-0.03857175
175	0xbe4a1306	-0.1973382
176	0xbe447b27	-0.19187604
177	0x201ac62b	1.3109876e-19
178	0x3e322a8c	0.17399043
179	0xbc27a478	-0.0102320835
180	0xbc14e9ae	-0.009088917
181	0xbe1b13fa	-0.15144339
182	0xbe82da56	-0.25557202
183	0x3dc82533	0.0977272
184	0xbe3ae651	-0.18251921
185	0xbdc66c9a	-0.09688683
186	0xbe7aff5b	-0.24511473
187	0xbd36cd19	-0.04462919
188	0xbe704f10	-0.2346766
189	0x3e9b368b	0.3031505
190	0x3d56f7e8	0.052482516
191	0xbe35c769	-0.1775185
192	0xbe1b2fc5	-0.15154941
193	0xbdc6b598	-0.09702605
194	0x3db819de	0.08989309
195	0x3e6254c3	0.22102647
196	0x3e821956	0.25409955
197	0xbe1aa804	-0.15103155
198	0x3e9062e6	0.28200454
199	0x3e0186b5	0.12649043
200	0x3d82566a	0.063641384
201	0x207910e9	2.1096715e-19
202	0x3e288946	0.16458616
203	0xbd3d203c	-0.04617332
204	0xbe8465b1	-0.25858834
205	0xbe461835	-0.19345172
206	0x3e4c72a1	0.19965602
207	0xbe08aba0	-0.1334672
208	0x3e585329	0.21125473
209	0xbe24873c	-0.16067213
210	0xbe2f87fc	-0.17141718
211	0xbc8539a1	-0.016262831
212	0xa421160f	-3.4929994e-17
213	0xbc2c3227	-0.010510004
214	0xbe0dd0e5	-0.13849218
215	0x3e8102b7	0.25197384
216	0xbe51bdb8	-0.20482528
217	0xbb0a975e	-0.002114735
218	0xbde0d427	-0.10977965
219	0xbe5176e6	-0.20455512
220	0x3e802d0d	0.2503437
221	0x3d3346f0	0.043768823
222	0x3e131266	0.14362487
223	0x3d31eeff	0.043440815
224	0xbe589dfa	-0.21154013
225	0x3dc5e542	0.09662868
226	0xbdf82216	-0.121158764
227	0x3e8da67e	0.27666086
228	0xbe5689ee	-0.20951054
229	0xbe82c204	-0.25538647
230	0x3de0a1ed	0.10968385
231	0xbe5634b2	-0.20918539
232	0xbe6393f2	-0.22224405
233	0xbcc2de88	-0.023787752
234	0x3ced71a6	0.028984856
235	0xbe75c2ec	-0.24000138
236	0xbd9d6136	-0.07684557
237	0xbe8573eb	-0.26065
238	0x3e0f8752	0.14016464
239	0xbd74c722	-0.05976022
240	0x3e69c5a6	0.22829303
241	0xba4b7e16	-0.0007762624
242	0xbde40ef5	-0.11135665

bias_ih_l0 f4 [27]
0	0x3d68c963	0.056832682
1	0xbe8fa74c	-0.28057325
2	0x3e2605e3	0.16213183
3	0xbe5605af	-0.20900606
4	0xbd306720	-0.043067098
5	0xbc9fb6fc	-0.019496433
6	0xbe2ccdcc	-0.1687538
7	0xbe05d995	-0.13071282
8	0x3d4c8c98	0.04993877
9	0xbe8b455e	-0.2720136
10	0xbe9e8687	-0.3096201
11	0x3ea4fef0	0.32225752
12	0x3db085aa	0.086192444
13	0xbe2a837b	-0.16651718
14	0x3e108ace	0.1411545
15	0x3db03691	0.08604158
16	0xbe709baf	-0.23496889
17	0x3eb2a9b0	0.34895086
18	0xbe8c1b52	-0.27364594
19	0xbe8ba25e	-0.27272314
20	0x3e22146d	0.15828104
21	0x3d133ca5	0.035946507
22	0x3e0c6ef3	0.13714199
23	0x3e4887e2	0.19583085
24	0xbe08f753	-0.13375597
25	0x3e39d244	0.18146616
26	0xbe3aedfb	-0.18254845

bias_hh_l0 f4 [27]
0	0xbe6cd2ac	-0.2312724
1	0xbd25e808	-0.040504485
2	0xbea0ad91	-0.3138242
3	0xbe76511e	-0.24054381
4	0xbb7d8172	-0.0038681892
5	0x3dabd91c	0.0839102
6	0x3da26d19	0.07930965
7	0xbd45e2db	-0.04831205
8	0xbd2dc854	-0.042427376
9	0x3e6171a8	0.22016013
10	0xbe91130d	-0.28334847
11	0x3e32ab1b	0.17448084
12	0xbe8216e4	-0.2540809
13	0x3d965cab	0.07341894
14	0x3e089593	0.13338308
15	0xbe933ace	-0.28755802
16	0x3e8f701a	0.28015214
17	0xbe470b48	-0.19437897
18	0x3e643801	0.22286989
19	0xbe43096f	-0.19046567
20	0xbe4fa1a5	-0.20276506
21	0xbd561f45	-0.052275915
22	0x3e62cfe9	0.22149624
23	0x3df82eed	0.121183254
24	0xbeb70259	-0.3574398
25	0x3d064614	0.032781675
26	0x3cdb9213	0.026803052

weight_ih_l0 f4 [3, 11]
0	0x3f500f85	0.8127368
1	0x3f2b781c	0.6698015
2	0x3f18701a	0.59546053
3	0x3e6a37bf	0.22872828
4	0x3f13ac73	0.5768501
5	0xbf200579	-0.6250835
6	0xbf51ae29	-0.8190637
7	0xbf5389d4	-0.82632184
8	0x3eb2fcdf	0.3495855
9	0x3e3d0ece	0.18462679
10	0x3eb3e563	0.35135946
11	0x3ae861ae	0.0017729306
12	0x3f57be40	0.84274673
13	0xbf17113d	-0.5901068
14	0x3e494002	0.19653323
15	0x3d517b45	0.05114295
16	0x3ee15da3	0.44016752
17	0xbd987bf3	-0.074455164
18	0xbda55d9b	-0.080744945
19	0x3ea29f50	0.3176217
20	0xbe6543d7	-0.2238916
21	0xbec671d0	-0.38758707
22	0x3e532ac2	0.2062178
23	0x3f469cda	0.77583086
24	0x3ef3559a	0.47526246
25	0x3f75e867	0.9605774
26	0x3e5c401e	0.21508834
27	0x3f4d2306	0.80131567
28	0x3e8d172a	0.27556735
29	0xbf5c49fb	-0.86050385
30	0x3e822708	0.25420403
31	0xbe43e7f4	-0.19131452
32	0xbda2c78c	-0.07948217

weight_hh_l0 f4 [3, 1]
0	0x3f3db2ad	0.7410076
1	0xbf4bf985	-0.7967761
2	0x3f19c49f	0.60065645

bias_ih_l0 f4 [3]
0	0xbecb3c28	-0.39694333
1	0x3f78b226	0.9714683
2	0xbf56b554	-0.83870435

bias_hh_l0 f4 [3]
0	0xbf7311e6	-0.94949186
1	0x3eabe27a	0.33571225
2	0x3f214de9	0.63009506

weight f4 [1, 9]
0	0xbdfb16c5	-0.12260202
1	0xbe4e6fff	-0.2015991
2	0x3dbc0897	0.09181326
3	0xbcdb8eb4	-0.026801445
4	0x3e55187f	0.20810126
5	0xbdbf6172	-0.09344758
6	0x3e1684f5	0.14699157
7	0xbcff037f	-0.031129597
8	0xbda73ee5	-0.08166293

weight f4 [400, 10]
0	0x3e4f3bab	0.20237605
1	0xbe7ab9f7	-0.24485002
2	0xbd60b8d4	-0.054863766
3	0xbe12098d	-0.14261456
4	0x3e88b936	0.26703805
5	0xbe754192	-0.23950794
6	0xbe259fc7	-0.16174231
7	0xbe626f50	-0.22112775
8	0xbe5b5e7d	-0.21422763
9	0x3e87a267	0.2649109
10	0x3e9a8bfc	0.30184925
11	0xbe672c45	-0.22575481
12	0x3e986d19	0.29770735
13	0xbe1c4593	-0.15260915
14	0xbe119db5	-0.14220317
15	0xbdfd1b6b	-0.12358745
16	0xbe4653d2	-0.19367912
17	0x3e7e31dc	0.24823707
18	0x3e935990	0.28779268
19	0x3e05afe8	0.13055384
20	0xbe426b53	-0.18986253
21	0xbcc5ccba	-0.024145473
22	0x3da02492	0.07819475
23	0xbd843405	-0.064552344
24	0xbd9b4ede	-0.07583402
25	0xbe0392f2	-0.12849024
26	0xbd89ace0	-0.067224264
27	0x3ceea9b6	0.029133659
28	0xbe0b88ec	-0.1362645
29	0xbdf718b5	-0.12065259
30	0xbc4418d9	-0.011968815
31	0xbe030b72	-0.12797335
32	0x3e53fc51	0.2070172
33	0x3df05586	0.11735062
34	0x3e6e2ce2	0.23259309
35	0x3d2d156b	0.042256754
36	0xbe9524e4	-0.29129708
37	0x3e6dc1a3	0.23218398
38	0x3d93cf91	0.072173245
39	0xbe7a5060	-0.24444723
40	0xbe4d8e34	-0.20073777
41	0x3e2eeb2d	0.170819
42	0x3e266c7e	0.16252324
43	0xbd393565	-0.045216937
44	0x3e95efc3	0.29284486
45	0x3ea15573	0.31510505
46	0x3e0ff774	0.1405924
47	0xbe382da1	-0.17986156
48	0x3e2833a1	0.16425945
49	0x3e0dc2e4	0.13843876
50	0xbda1d689	-0.079022475
51	0x3e6a5432	0.2288368
52	0xbb519f9a	-0.0031986
53	0x3dbea282	0.0930834
54	0x3e6381d0	0.22217488
55	0xbe0b3313	-0.13593702
56	0x3e3e0301	0.18555833
57	0xbe0f611e	-0.14001891
58	0xbdada1c6	-0.084781215
59	0xa0522fc8	-1.7803501e-19
60	0x3d3de370	0.04635948
61	0x3e625905	0.22104271
62	0xbe8d34d8	-0.2757938
63	0x3e844bb5	0.2583901
64	0xbe58046f	-0.21095441
65	0xbe364b1f	-0.17802094
66	0x3e608006	0.21923837
67	0xbe6b8c68	-0.2300278
68	0x3df43c89	0.11925609
69	0xbe0bc1d5	-0.1364816
70	0x3e199c8a	0.15001121
71	0xb9c6d68a	-0.00037925347
72	0x3d97fb55	0.07420985
73	0xbe5bb134	-0.21454316
74	0x3d634c2d	0.05549257
75	0x3e265865	0.16244657
76	0x3e53a685	0.20668991
77	0xbcf06e96	-0.029349606
78	0x3e7c8dc4	0.24663454
79	0x3d4d5a71	0.05013508
80	0xbcc77558	-0.024347946
81	0x30a5cca7	1.2063496e-09
82	0xbe2ba89d	-0.1676354
83	0xbc0dd572	-0.008656846
84	0xbab3b8b3	-0.0013711661
85	0x3da432a1	0.08017469
86	0x3dfadb94	0.122489125
87	0xbe038747	-0.12844573
88	0xbe16d3dd	-0.14729257
89	0xbd94af16	-0.072599575
90	0x3e47ee7b	0.19524567
91	0xbe563971	-0.2092035
92	0xbaf1478e	-0.0018408166
93	0xbe381bff	-0.1797943
94	0xbe6e8195	-0.23291619
95	0x3e472d34	0.19450837
96	0xbdf2b3b8	-0.11850685
97	0xbd44890f	-0.04798227
98	0xbe744b7f	-0.23856924
99	0x3e84f07d	0.25964728
100	0x3e4b184a	0.19833484
101	0x3e7b0c43	0.24516396
102	0xbe020d59	-0.12700404
103	0x3e0341e6	0.12818107
104	0x3e6af13c	0.22943586
105	0x3e82540e	0.25454754
106	0xbe8d888f	-0.27643248
107	0xbd4419da	-0.047876216
108	0xbbb673fc	-0.0055680256
109	0x3c8a67a0	0.016895115
110	0xbe6e37dc	-0.23263496
111	0xbdf7b268	-0.12094575
112	0x3d51c538	0.051213473
113	0x3e1573a2	0.14594892
114	0x9f11daf5	-3.088606e-20
115	0x3e63784a	0.22213855
116	0x3e38ad63	0.18034892
117	0xbe234238	-0.15943229
118	0x3c080c23	0.008303675
119	0xbe586165	-0.21130903
120	0x3e69fb5c	0.22849792
121	0x3d093200	0.03349495
122	0x3d8c0bcf	0.0683819
123	0x3e2b9998	0.1675781
124	0x3e8ff574	0.28116953
125	0x3e954655	0.29155222
126	0x3e682725	0.22671182
127	0x3d94c70a	0.07264526
128	0xbe4aaaac	-0.19791669
129	0x3d1bfd2d	0.038083244
130	0x3e12c079	0.14331235
131	0x3e065170	0.13117003
132	0xbe97c530	-0.2964263
133	0x3e1d8159	0.15381373
134	0xbe5f98fe	-0.21835706
135	0xbbd9adb6	-0.0066430224
136	0xbe6407fd	-0.22268672
137	0xbdff8f4f	-0.12478506
138	0xbd840a23	-0.06447246
139	0x3ea3ea52	0.3201471
140	0xbe0a2ccf	-0.13493656
141	0xbc7b828c	-0.015350949
142	0xbe63bbae	-0.22239563
143	0x3e8daba3	0.2767001
144	0xbe1efbe2	-0.15525773
145	0x3c2eb5dc	0.010663476
146	0x3d7cab75	0.06168695
147	0xbd9ef46b	-0.07761463
148	0xbdc87307	-0.09787565
149	0x3e7774e9	0.24165691
150	0xbe61a069	-0.22033848
151	0x3e2486c9	0.16067041
152	0xbdb0afc7	-0.08627277
153	0x3e338944	0.17532831
154	0xbd3f7b2f	-0.046748336
155	0x3e3e6713	0.18594007
156	0x3e859d45	0.2609655
157	0xb9d5b80b	-0.0004076365
158	0xbe8224f9	-0.25418833
159	0xbe3461d1	-0.17615439
160	0x3db77b6b	0.08959087
161	0xbdf842ac	-0.12122092
162	0x3a734a30	0.0009280769
163	0xbe0960f9	-0.13415898
164	0xbdfe46e0	-0.12415862
165	0xbe44b789	-0.19210638
166	0x3d7667c7	0.060157564
167	0xbe6b280b	-0.22964494
168	0xbdd3ee99	-0.10348243
169	0x3e741f38	0.23840034
170	0x3debe4ad	0.11518226
171	0xbe8439d2	-0.25825363
172	0x3ddfedcc	0.10934028
173	0x3de411c6	0.111362025
174	0xbe6bdce1	-0.23033477
175	0xbb838bf4	-0.0040144864
176	0xbe1cbf97	-0.1530746
177	0xbd8b8b76	-0.068137094
178	0x3e863d86	0.26218814
179	0x3da4932f	0.080358855
180	0x3dbe1a67	0.092823796
181	0x3e72543d	0.23664947
182	0x3c44e1fe	0.012016771
183	0x3ca7d20f	0.020485906
184	0xbc85bcf1	-0.016325446
185	0xbe19d9f1	-0.15024544
186	0x3e358223	0.17725424
187	0xbd9b983b	-0.07597395
188	0xbbfa4bdd	-0.007638438
189	0x3bfea405	0.0077710175
190	0x3e1430db	0.14471762
191	0xbc20cd86	-0.009814626
192	0x3e3c0efb	0.1836509
193	0x3e4f50d8	0.20245683
194	0xbdd65e19	-0.104671665
195	0xb8d4cf74	-0.00010147589
196	0xbcd0e7d0	-0.025501162
197	0x3d111dec	0.035428926
198	0x3dddbfb6	0.108275816
199	0x2182029f	8.809836e-19
200	0x3e1ddb28	0.15415633
201	0xbe203cfc	-0.15648264
202	0xbe5a5e1e	-0.21324965
203	0xbe91ecf3	-0.2850109
204	0x3e06cf3d	0.13164993
205	0xbd520385	-0.051272888
206	0xbe896164	-0.26832116
207	0xbdb1b809	-0.0867768
208	0x3e27ff1d	0.16405912
209	0x3e08831b	0.13331263
210	0xbe99fff6	-0.30078095
211	0x3e4973a6	0.19673023
212	0xbdbfa9ed	-0.09358583
213	0x3d0a2b67	0.033732798
214	0x3e8049bc	0.25056255
215	0xbe95662f	-0.29179522
216	0x3e05c645	0.13063915
217	0xbd8f76d5	-0.07005087
218	0xb9e3b464	-0.00043431215
219	0x3de4f547	0.111795954
220	0xbe1a50f1	-0.15069939
221	0x3e19d6b7	0.15023313
222	0x3c55c954	0.013048489
223	0xbe87eb04	-0.2654649
224	0x3ddae52a	0.10688241
225	0x3c244f4f	0.010028674
226	0xbe2dd4f0	-0.1697576
227	0xbe9737b1	-0.29534677
228	0xbe418296	-0.18897471
229	0x3e0ec79b	0.13943331
230	0xbe88061d	-0.26567164
231	0xbd1cfbae	-0.038325958
232	0xbdd7308b	-0.10507306
233	0x3d9030c2	0.0704055
234	0xbe4a40a7	-0.19751225
235	0xbdc2008d	-0.09472761
236	0xbe288881	-0.16458322
237	0xbe20d443	-0.15705971
238	0xbe429d22	-0.19005254
239	0x3dae6b04	0.08516505
240	0xbe951cc1	-0.291235
241	0xbe435c86	-0.19078264
242	0xbd42000d	-0.04736333
243	0xbb786691	-0.0037902931
244	0x3e8ae712	0.27129418
245	0x3d965332	0.07340087
246	0xbe6f2741	-0.23354818
247	0xbe8d3937	-0.27582714
248	0xbdcd9bfe	-0.10039519
249	0x3e21f236	0.15815052
250	0x3e0d9e3a	0.1382989
251	0x3e3d0d4c	0.18462104
252	0x3e681fc8	0.22668374
253	0xbe506abd	-0.20353217
254	0x3e8d77f7	0.27630588
255	0xbc8aac73	-0.016927933

bias f4 [400]
0	0xbe01c3ec	-0.12672395
1	0x3cf772f2	0.030206177
2	0x3e9e145f	0.30874917
3	0x3d59e78e	0.053199343
4	0x3d028a97	0.03187045
5	0xbe14aca6	-0.14518985
6	0x3e6b56cf	0.22982334
7	0xbd0c1512	-0.03419978
8	0xbcf5ad31	-0.02998981
9	0x3e84216a	0.25806743
10	0x3c5574f5	0.013028373
11	0xbe484fe0	-0.1956172
12	0x3e94a7c5	0.29034248
13	0x3e926a8b	0.2859691
14	0x3ea1f1cc	0.3162979
15	0x3e9ad4d8	0.30240512
16	0xbe7a5643	-0.24446969
17	0xbd934fcc	-0.071929544
18	0x3ca009e3	0.019535964
19	0xbe12bdf4	-0.14330274
20	0xbd4e203c	-0.05032371
21	0x3e21ee14	0.15813476
22	0xbd12e770	-0.035865247
23	0x3e7badc0	0.24577999
24	0x3ca4e0e5	0.02012677
25	0xbd45d77e	-0.048301212
26	0xbd775ff5	-0.060394246
27	0x3ca70d57	0.020392103
28	0x3e000783	0.12502865
29	0xbe1a7be8	-0.15086329
30	0xbe56b4dd	-0.20967431
31	0xbcb79fd6	-0.022415083
32	0xbcf2f422	-0.029657427
33	0x3d62191a	0.05519972
34	0xbd5ef2d6	-0.054430805
35	0xba1272ea	-0.00055865815
36	0x3e5608ad	0.20901747
37	0xbe43017c	-0.19043535
38	0xbe473073	-0.19452076
39	0x3ca6594b	0.02030625
40	0xbe56f757	-0.2099279
41	0x3e2d8d9a	0.16948548
42	0x3e29f6d8	0.1659807
43	0x3d981c76	0.074273035
44	0x3e82bea4	0.25536072
45	0x3dc9a487	0.09845834
46	0x3dbb9679	0.0915956
47	0x3e19e6b3	0.15029411
48	0xbe2eacff	-0.1705818
49	0x3d9e322d	0.07724414
50	0xbd26ed0b	-0.040753406
51	0xbb4be75d	-0.0031113245
52	0x3de69e33	0.11260643
53	0x3e9a1d22	0.30100352
54	0xbe7c2d08	-0.24626553
55	0xbe7c9799	-0.24667205
56	0xbdda1647	-0.1064878
57	0xbe6152e4	-0.22004277
58	0x3e04a124	0.12952095
59	0x3d007b46	0.031367563
60	0x3e971a32	0.29512173
61	0xbdb576c9	-0.08860547
62	0xbe6d1fd1	-0.23156668
63	0xbcfd9b60	-0.030957878
64	0x3da834c1	0.08213187
65	0xbb71b669	-0.0036882407
66	0xbe54b037	-0.20770346
67	0xbe0ef14e	-0.13959238
68	0x3d0698ca	0.032860555
69	0x3e0426c1	0.12905408
70	0x3ba916d8	0.005160194
71	0x3cfca006	0.030838024
72	0xbe3082e1	-0.17237426
73	0xbe5605e3	-0.20900683
74	0xbd44d5f3	-0.0480556
75	0x3e9770d2	0.29578263
76	0xbe40db89	-0.18833746
77	0xbe19999b	-0.15000002
78	0xbe42af5c	-0.19012207
79	0x3e3ac5b3	0.18239479
80	0xbcc0c6a1	-0.023532214
81	0x3da2730a	0.07932098
82	0xbe665a4b	-0.22495382
83	0x3e92c17c	0.28663242
84	0x3ddb7a78	0.107167184
85	0x3e166aca	0.14689174
86	0xbd76959d	-0.060201276
87	0xbdcb5f9f	-0.09930348
88	0x3c5fa8f1	0.013651119
89	0x3d35a878	0.044350117
90	0x3e78bf9f	0.24291848
91	0xbe59fa8f	-0.21286987
92	0xbe6c01bc	-0.23047537
93	0x3e23ca8a	0.15995231
94	0xbc6577f0	-0.014005646
95	0xbe5cf26c	-0.21576852
96	0xbe656050	-0.22400022
97	0xbd87de01	-0.06634141
98	0xbe2951d8	-0.16535127
99	0x3da13aef	0.07872569
100	0x3e63ed2b	0.22258441
101	0xbd811c7b	-0.0630426
102	0xbe0c6cf5	-0.13713439
103	0xbe2b6873	-0.16739063
104	0xbe2a2263	-0.1661468
105	0xbde579c1	-0.11204863
106	0x3da2bd24	0.07946232
107	0xbe5e3a30	-0.21701884
108	0xbe0ffa2f	-0.14060281
109	0xbc94940e	-0.018137004
110	0xbdd7209d	-0.10504267
111	0xbdc53562	-0.096293226
112	0xbe280b93	-0.16410665
113	0x3e86bc38	0.26315475
114	0x3e16ae63	0.14714961
115	0xbd9bdc94	-0.07610431
116	0xbe0141b2	-0.12622717
117	0x3e09c41d	0.13453718
118	0xbe02e803	-0.12783818
119	0xbddbd8e3	-0.10734727
120	0x3e193ea4	0.14965302
121	0x3e22bff0	0.15893531
122	0xbd858213	-0.0651895
123	0xbd881db0	-0.066462874
124	0x3d16c67e	0.03681039
125	0x3cbf7495	0.02337102
126	0xbe4eb015	-0.20184357
127	0x3e95a63b	0.29228386
128	0xbdd2db77	-0.10295766
129	0xbe09b3da	-0.13447514
130	0x3dc1d745	0.094648875
131	0x3d33ee89	0.043928657
132	0x3e120aef	0.14261983
133	0xbdf09e53	-0.11748948
134	0xbe568745	-0.20950039
135	0xbced1655	-0.028941313
136	0xb796bb40	-1.7968589e-05
137	0xbdafa95d	-0.08577225
138	0xbe0a44cd	-0.13502808
139	0xbc98d8d6	-0.018658083
140	0xbd4be3f0	-0.049777925
141	0x3e7f0b43	0.2490664
142	0xbd3ece60	-0.046583533
143	0xbde0f3e6	-0.1098402
144	0xbe43dc88	-0.19127095
145	0x3e6462a9	0.22303261
146	0xbc75d0d7	-0.015003405
147	0xbe7c454a	-0.24635807
148	0xbe77faec	-0.24216813
149	0x3e3a9af8	0.18223178
150	0x3e10b3ed	0.14131136
151	0xbcfc6e33	-0.030814266
152	0xbe6cab55	-0.23112233
153	0x3c8b983d	0.017040366
154	0xbe1d5936	-0.15366063
155	0x3e9ef41a	0.3104561
156	0x3e2bdf23	0.16784339
157	0x3c8b9acf	0.017041592
158	0x3e878cf4	0.26474726
159	0xbdec6f25	-0.11544637
160	0xbe61bb2c	-0.22044057
161	0xbca6dba4	-0.020368405
162	0x3e0945dd	0.13405557
163	0x3e00860f	0.1255114
164	0x3d3a3edc	0.045470104
165	0xbe34f93f	-0.17673205
166	0x3e8fb2b6	0.28066033
167	0x3e3002fd	0.1718864
168	0x3e6dc961	0.23221351
169	0xbdd835ea	-0.10557158
170	0x3e1ee6b9	0.15517701
171	0x3c0824aa	0.008309523
172	0x3d5e4651	0.054266278
173	0x3e8106f0	0.25200605
174	0xbe574426	-0.2102209
175	0xbe6e3094	-0.23260719
176	0xbd238131	-0.03991813
177	0x3acd70a0	0.0015673824
178	0xbd54ce27	-0.051954415
179	0x3d9ac60b	0.07557305
180	0xbe7c8a1a	-0.24662057
181	0xbe103b68	-0.14085162
182	0xbe1abc2a	-0.15110841
183	0xbd3e76f8	-0.046500176
184	0x3e88c16d	0.26710072
185	0xbe8cd653	-0.27507266
186	0xbba93077	-0.005163248
187	0x3e71208d	0.23547573
188	0xbdf8ff6c	-0.12158093
189	0x3d47ebd1	0.048808876
190	0x3e2d5e80	0.1693058
191	0xbe07a532	-0.13246611
192	0xbd207cda	-0.039181568
193	0xbe24255d	-0.16029878
194	0x3e357941	0.17722036
195	0x3e6cc895	0.23123391
196	0xbe66ecbb	-0.22551243
197	0x3e8763df	0.26443383
198	0x3e843aab	0.2582601
199	0xbe132b42	-0.1437197
200	0xbe6078cd	-0.21921082
201	0x3deff2ab	0.11716207
202	0x3d4b26cf	0.049597558
203	0x3c5ce14e	0.013481451
204	0x3e1e81ed	0.1547925
205	0xbe3502ef	-0.176769
206	0x3e9d1c14	0.30685484
207	0xbca0ae9c	-0.01961451
208	0xbd2a6f35	-0.04160996
209	0x3e1d364a	0.15352741
210	0x3debdf32	0.115171805
211	0xbe400598	-0.18752134
212	0x3dc54046	0.096314
213	0xbe6f1530	-0.23347926
214	0x3e9b002e	0.30273575
215	0x3e198fa4	0.14996201
216	0xbd23f798	-0.040031046
217	0x3d8e1ba2	0.06938864
218	0x3e80f79b	0.25188908
219	0x3d61b55f	0.05510461
220	0x3e9212ee	0.28530067
221	0x3da2a0bd	0.07940815
222	0xbdb7e848	-0.08979851
223	0xbe012d4e	-0.12614939
224	0x3e4525d8	0.19252717
225	0xbdb0bbd4	-0.08629575
226	0x3e90301d	0.28161708
227	0x3e008119	0.12549247
228	0x3ba1dca3	0.004939632
229	0x210db53b	4.8012515e-19
230	0x3bc4c3f0	0.006004803
231	0x3dc01ede	0.093808874
232	0x3d1c43eb	0.03815071
233	0xbd29a910	-0.041420996
234	0xbdf0eed8	-0.11764306
235	0x3e87f44f	0.2655358
236	0x3e9456c5	0.2897245
237	0x3e39f182	0.18158534
238	0x3cc50bf9	0.02405356
239	0xbd8dc953	-0.06923165
240	0x3d23419a	0.039857484
241	0xbd1d7980	-0.03844595
242	0xbe4da953	-0.20084123
243	0xbe69c212	-0.22827938
244	0xbe422ad3	-0.18961649
245	0x3eaadf00	0.3337326
246	0xbe2bb52f	-0.16768335
247	0x3e23214e	0.15930673
248	0x3e863c53	0.262179
249	0x3e5b8e98	0.21441114
250	0xbd83f6d6	-0.064435646
251	0xbe5f74f2	-0.21821955
252	0x3e4d398e	0.20041487
253	0xbdf12d17	-0.11776178
254	0xbe21e24a	-0.15808979
255	0xbd84d903	-0.06486704
