KNet/best-model.pt (torch, 103714 bytes, 44 tensors)

weight_ih_l0 f4 [27, 15]
0	0xbd9efe95	-0.077634014
1	0x3e0df017	0.13861118
2	0x3d2cbe73	0.042173814
3	0xbe41fb35	-0.18943484
4	0x3e008044	0.1254893
5	0x3e95d910	0.29267168
6	0x3e5eb027	0.21746884
7	0x3e2b1a24	0.1670919
8	0xbe8d41a9	-0.27589157
9	0x3e5afd64	0.21385723
10	0xbe5660c5	-0.20935352
11	0x153578cb	3.6647948e-26
12	0xbe2285f0	-0.15871406
13	0xbe70c7c8	-0.2351371
14	0xbdcc276a	-0.09968455
15	0xbcc48136	-0.023987394
16	0x3e28ae03	0.1647263
17	0xbe6822da	-0.22669545
18	0x3e9118f0	0.28339338
19	0xbc5a5b9c	-0.013327505
20	0xbe87e26d	-0.26539937
21	0x3d93140a	0.071815565
22	0xbe9d449e	-0.30716413
23	0x3dc07558	0.093973815
24	0x3dae4682	0.08509542
25	0x3e511de5	0.2042156
26	0xb60221d6	-1.9391205e-06
27	0x3e48ade8	0.1959759
28	0xbe776983	-0.24161343
29	0x3dbe7bb4	0.09300938
30	0x3d8acb0a	0.06777008
31	0xbcef6b33	-0.029225921
32	0x3dadb3f9	0.08481593
33	0xbcfb0355	-0.030641237
34	0xbe4073d1	-0.1879418
35	0x3d46f021	0.04856885
36	0x3e5e9492	0.21736363
37	0x3e955a0c	0.29170263
38	0xbd8c85c1	-0.06861449
39	0xbdd6214a	-0.10455568
40	0x3e2acf7f	0.16680716
41	0x3dadd4ac	0.084878296
42	0x3b097fd6	0.0020980737
43	0x3e28ee48	0.16497147
44	0xbe049034	-0.12945634
45	0x3c485104	0.012226347
46	0x3c04c6e1	0.008104057
47	0xbe9fe139	-0.3122652
48	0x3dd7d040	0.105377674
49	0xbd36c481	-0.044620994
50	0xbd8fee0e	-0.07027827
51	0xbdd8a5a5	-0.10578469
52	0xbdff1e47	-0.12456947
53	0x3de829d4	0.11336103
54	0xbc6a2363	-0.014290663
55	0xbe0309f8	-0.12796772
56	0xbd878a32	-0.066181555
57	0xbe41f24a	-0.18940082
58	0xbddfa55f	-0.10920214
59	0x3df463fd	0.11933134
60	0x3e0f9ccf	0.14024661
61	0x3e12be16	0.14330325
62	0xbe884b21	-0.2661982
63	0xbd37248c	-0.04471259
64	0x3e6566da	0.22402516
65	0x3e009568	0.12556994
66	0x3e258cdb	0.16167013
67	0xbd8c41d3	-0.068484925
68	0x3d3f1272	0.04664845
69	0x3e441129	0.19147171
70	0x3d376a75	0.04477926
71	0xbe427c69	-0.18992771
72	0xbe52ba3d	-0.20578857
73	0x3c88ba6e	0.01669046
74	0x3c3c5578	0.011494987
75	0x3e574246	0.21021375
76	0x3e969fbc	0.29418743
77	0xbe32d777	-0.17465006
78	0x3c206506	0.009789711
79	0xbe87d208	-0.2652743
80	0x3e9986a5	0.29985538
81	0x3e428d09	0.18999113
82	0xbe1e0c48	-0.15434372
83	0x3db23d94	0.08703151
84	0xbe447d3a	-0.19188395
85	0xbe44c6d8	-0.19216478
86	0xbe1db36b	-0.15400474
87	0xbe13ebfd	-0.14445491
88	0xbe81ef71	-0.25377992
89	0x3e895861	0.2682524
90	0x3d79f377	0.0610232
91	0x3e0b0e5a	0.13579693
92	0xbdf8aeab	-0.1214269
93	0x3e0d4f18	0.13799703
94	0x3d1e4904	0.038643852
95	0x3d8aeb5e	0.06783174
96	0x3e72f5af	0.23726533
97	0xbe27b7b1	-0.16378666
98	0x3da83d9f	0.08214878
99	0x3b7b83d3	0.0038378134
100	0x3c287aca	0.010283181
101	0x2b95d84e	1.0647123e-12
102	0xbe57bdbe	-0.21068475
103	0x3daf5d44	0.08562711
104	0xbdc42ad8	-0.09578484
105	0xb8fc3d22	-0.00012027683
106	0xbdbbd11c	-0.09170744
107	0x3e815c6b	0.25265822
108	0x3db737e2	0.08946206
109	0xbb904e63	-0.0044038757
110	0xbdc832eb	-0.09775337
111	0x3e05f62a	0.13082185
112	0xbe146089	-0.1448995
113	0x3b98fbae	0.0046686744
114	0x3cff3736	0.031154256
115	0x3e2e8643	0.17043404
116	0x3d9bb72b	0.07603296
117	0xbe841928	-0.25800443
118	0x3cd29c36	0.025709253
119	0x3e7276d2	0.23678139
120	0xbe25abac	-0.16178769
121	0xbe1d52dc	-0.1536364
122	0xbe0767ad	-0.13223143
123	0xbe7c08f1	-0.24612786
124	0xbe1bc604	-0.15212256
125	0x3ce703c4	0.028200038
126	0x3d66cb25	0.056346077
127	0x3e9f6659	0.31132773
128	0xbbb889e3	-0.0056316718
129	0x3d338793	0.043830466
130	0x3aaf0809	0.0013353835
131	0xbe1208e5	-0.14261205
132	0x3dfedf4d	0.12444935
133	0xbe870a2c	-0.26374948
134	0x3e859a3b	0.2609423
135	0xbbc7745b	-0.0060868687
136	0xbe92c6da	-0.28667337
137	0xbdcecd92	-0.10097803
138	0xbcb882f3	-0.022523379
139	0x3e47de6c	0.19518441
140	0xbe1335a6	-0.14375934
141	0xbe1e09e8	-0.15433466
142	0xbea2e56d	-0.31815663
143	0x3e8671e6	0.26258773
144	0x3e639b88	0.22227299
145	0xbdf2f6e8	-0.118635
146	0xbba56d9c	-0.005048467
147	0x3e502bd1	0.20329215
148	0xbda6ba63	-0.08141019
149	0x3d26942b	0.040668648
150	0x3e3217cc	0.1739189
151	0x3e36d181	0.17853357
152	0xbe38af12	-0.18035534
153	0xbe1b9f29	-0.15197434
154	0x3e350e53	0.17681246
155	0x3b7b6792	0.0038361293
156	0xbe7aa517	-0.2447704
157	0xbde0839f	-0.10962605
158	0xbd7dae5d	-0.061933864
159	0xbe489deb	-0.19591491
160	0xbe0af2ad	-0.13569136
161	0xbc15c1ac	-0.009140413
162	0x3e803373	0.25039253
163	0xbe49f34f	-0.19721721
164	0xbdef311c	-0.11679289
165	0x3e0301e1	0.12793685
166	0xbe091314	-0.13386184
167	0xbd012efa	-0.03153894
168	0xbda9da92	-0.08293642
169	0x3e51eeac	0.20501202
170	0xbe84d9f7	-0.25947544
171	0x3d314cbb	0.043286067
172	0xbdf540ce	-0.11975251
173	0x3e8d8727	0.27642176
174	0xbe8acf25	-0.27111164
175	0xb74f90cf	-1.2371877e-05
176	0x3e42e552	0.19032791
177	0x3e115f2c	0.14196461
178	0x3e3c40a0	0.18384027
179	0xbdb17b0b	-0.08666047
180	0xba12169c	-0.0005572827
181	0xbb03d0e3	-0.002011352
182	0xbe42f450	-0.1903851
183	0x3cbcc439	0.023042785
184	0xbd9f639c	-0.07782671
185	0x3d735979	0.0594115
186	0xbd883c76	-0.06652157
187	0xbd64f4d2	-0.05589754
188	0xbc85daec	-0.016339742
189	0xbc95d154	-0.018288292
190	0xbdeb1a12	-0.11479582
191	0xbe5a39e0	-0.2131114
192	0xbce2b308	-0.02767326
193	0x3e2ef0d3	0.17084055
194	0xbe360ec4	-0.1777907
195	0x2664c5a7	7.937126e-16
196	0xbdaeda48	-0.085377276
197	0x3e231a83	0.15928082
198	0xbd1a37fd	-0.03765105
199	0x3e2d70ae	0.16937515
200	0x3e745e9e	0.23864219
201	0xbea06344	-0.31325734
202	0xbdc7758e	-0.09739219
203	0xbdc33be3	-0.09532907
204	0xbe85a338	-0.2610109
205	0xbe30c8b5	-0.17264064
206	0x3df19537	0.117960386
207	0xbe58dede	-0.21178767
208	0x3e22eedf	0.15911435
209	0xbea1ed85	-0.31626526
210	0x39a9d76a	0.00032394688
211	0xbe07b395	-0.13252099
212	0x3e399b7c	0.18125719
213	0xbe92d922	-0.28681284
214	0x3e374e3d	0.1790094
215	0x3d0469d2	0.03232748
216	0x3e6b28da	0.22964802
217	0xbdc168bf	-0.09443807
218	0x3e23ae81	0.15984537
219	0xbdbb0612	-0.09132017
220	0xbd119f41	-0.035552267
221	0x3d3e38fe	0.04644107
222	0x3e974d35	0.29551092
223	0xbd23e389	-0.040011916
224	0xbc864f19	-0.016395139
225	0xbb59ae32	-0.00332154
226	0x3ca3e021	0.020004334
227	0x3e4953fa	0.19660941
228	0x3e33e760	0.17568731
229	0x3e1d32ec	0.15351456
230	0x3d480b31	0.048838798
231	0xbe337d13	-0.17528181
232	0xbe98ffe7	-0.29882738
233	0xbda86d8c	-0.082240194
234	0x3cf8231e	0.030290183
235	0x3e1dc93c	0.15408796
236	0x3baaea9a	0.005215955
237	0x3e8621e3	0.2619773
238	0x3e813280	0.2523384
239	0xbd84d4d8	-0.06485909
240	0xbc39fba5	-0.011351501
241	0xbdd32f2d	-0.103117324
242	0xbe7a2f44	-0.24432093
243	0xbe7223aa	-0.23646417
244	0xbe4746a8	-0.19460547
245	0x3c90ec31	0.01769075
246	0xbcc65e33	-0.02421484
247	0x3e7cea55	0.24698766
248	0x3dd53679	0.104107805
249	0xbdad6ae6	-0.08467655
250	0x3cac6cce	0.021047976
251	0x3dae2029	0.08502228
252	0x3e6f0843	0.23342995
253	0xbe71dcd0	-0.2361939
254	0xbe962caa	-0.2933095
255	0xb85b880f	-5.2340383e-05

weight_hh_l0 f4 [27, 9]
0	0x3dfbda7b	0.12297531
1	0xbda6ae05	-0.0813866
2	0x3db4e096	0.08831899
3	0x3e13a2f0	0.14417624
4	0x3e06fa0e	0.13181326
5	0xbe871eef	-0.26390788
6	0x3c014b21	0.007891447
7	0xbe760885	-0.24026687
8	0xbe3cb126	-0.18426952
9	0x3d51779d	0.051139463
10	0xbe0a382f	-0.13497995
11	0x3e124147	0.14282714
12	0x3e8ed72f	0.27898547
13	0xbdc6648b	-0.09687146
14	0x3e1346bd	0.14382453
15	0xbe9c52fd	-0.30532065
16	0x3e5ec26a	0.2175385
17	0x3e83a2a1	0.25710014
18	0x3df6e0a6	0.12054567
19	0x3ccd4ec3	0.02506197
20	0x3e62a972	0.22134951
21	0x3d6244a6	0.05524125
22	0x3db354ec	0.08756432
23	0x3be00ca3	0.006837444
24	0x3d01e045	0.03170802
25	0xbe18e86b	-0.1493241
26	0x3e99db2f	0.30050036
27	0x3d284f0a	0.041091003
28	0xbe6b25d5	-0.2296365
29	0x3e5a2b3a	0.21305552
30	0x3e9b7157	0.3035991
31	0xbe084b32	-0.13309935
32	0x3e2c92d1	0.16852881
33	0xbd47c9ef	-0.048776563
34	0x3d299021	0.041397218
35	0x3e7982cf	0.24366306
36	0x3e83256f	0.25614497
37	0x3e172d0c	0.14763278
38	0xbdc52b05	-0.09627346
39	0x3e98ef26	0.29869956
40	0x3cc6a642	0.0242492
41	0x3e48c75e	0.19607303
42	0x3cf0693d	0.029347057
43	0x3d5f226e	0.054476194
44	0xbe2bd92e	-0.16782066
45	0xbe930a78	-0.28718925
46	0xbe8e5565	-0.27799526
47	0x3ea6ed08	0.32602715
48	0xbe831fda	-0.25610238
49	0xbdac2f48	-0.08407456
50	0x3d7a857e	0.061162464
51	0xbda13a37	-0.07872432
52	0x3d3a5fdf	0.045501586
53	0xbe4f2989	-0.20230688
54	0xbe55bb95	-0.20872338
55	0xbc58ffcb	-0.01324458
56	0x3d1e93ea	0.03871528
57	0xbe639ff4	-0.22228986
58	0x3d2cb456	0.04216417
59	0x3db76830	0.08955419
60	0xbe00091c	-0.12503475
61	0x3d25b543	0.040456068
62	0x3defa2bf	0.11700963
63	0x3e23e996	0.16007075
64	0x3e4ce420	0.20008898
65	0xbe48726a	-0.19574896
66	0x3c9c567b	0.019084206
67	0xbd015ff8	-0.031585664
68	0xbd966c50	-0.07344878
69	0xbe6a6fd2	-0.22894219
70	0xbcb75511	-0.02237943
71	0xbe1868f1	-0.14883782
72	0xbe96e942	-0.29474837
73	0xbdc3e6c0	-0.095654964
74	0x3e15deca	0.14635769
75	0xbe63646e	-0.2220628
76	0xbe68e851	-0.22744872
77	0x3beb4dba	0.0071808966
78	0xbdf58349	-0.11987931
79	0xbdfc5b30	-0.1232208
80	0xbe5edb39	-0.21763314
81	0xbead7c3f	-0.33883855
82	0xbdf5a4c2	-0.11994316
83	0xbe89f1e4	-0.2694236
84	0x3df75633	0.12076988
85	0x3e159733	0.14608459
86	0xbe4d8fc9	-0.20074381
87	0xbe00582b	-0.12533633
88	0x3bb960f7	0.005657311
89	0x3e1c7bd7	0.15281616
90	0xbdd7231f	-0.10504746
91	0x3cf3eefa	0.029777039
92	0x3d834fe9	0.06411726
93	0x3cd26857	0.025684519
94	0xbe8d5bef	-0.27609202
95	0xbe030b9e	-0.127974
96	0xbcc33be0	-0.023832262
97	0x3e2ecb3a	0.17069712
98	0xbe28321f	-0.1642537
99	0x3e947770	0.28997374
100	0xbdb63d40	-0.08898401
101	0xbcc005ce	-0.023440268
102	0xbe87f345	-0.26552787
103	0x3eaa459d	0.33256236
104	0x3cb91d52	0.022596989
105	0x3d45738d	0.0482059
106	0xbe87e35a	-0.26540643
107	0x3e493b4a	0.19651523
108	0x3e859400	0.26089478
109	0xbdbed89e	-0.0931866
110	0x3e5c3880	0.21505928
111	0x3dbc04b6	0.09180586
112	0x3e06a4f3	0.1314886
113	0xbe2dd71c	-0.16976589
114	0xbd720622	-0.05908788
115	0x3e0b5b5a	0.13609067
116	0xbe8408c7	-0.25787947
117	0x3dd0d0f3	0.10196104
118	0x3df600bf	0.12011861
119	0xbe50469f	-0.2033944
120	0x3e59746e	0.2123582
121	0x3e964035	0.2934586
122	0xbdbc4012	-0.09191908
123	0xbe3a42b3	-0.18189506
124	0x3e8a0c60	0.26962566
125	0xbe7b92f1	-0.24567772
126	0x3dda40f8	0.10656923
127	0xbe0d820f	-0.13819145
128	0x3da14665	0.07874755
129	0xbe6ee733	-0.23330383
130	0x3e604401	0.21900941
131	0xbe0fd541	-0.14046194
132	0x3db46499	0.0880825
133	0xbd8f4c63	-0.069969915
134	0xbde5f737	-0.11228793
135	0xbdc3d4a0	-0.095620394
136	0xbd66873b	-0.05628131
137	0x3e7f9a1c	0.24961132
138	0x3e4afffa	0.1982421
139	0x3e689c29	0.2271582
140	0xbe7772e3	-0.2416492
141	0x3e87a703	0.26494607
142	0x3e1b3a12	0.15158871
143	0x3eac0f24	0.336053
144	0x3e755758	0.239591
145	0xbcd681d2	-0.02618495
146	0x3cd711ad	0.026253546
147	0x3e07d1a4	0.13263565
148	0xbe3099e6	-0.17246208
149	0xbdd16aa2	-0.10225417
150	0x3e455be7	0.19273339
151	0xbe282e51	-0.16423918
152	0x3e2877fe	0.16452023
153	0xbe4394f3	-0.19099788
154	0x3d44e507	0.04806998
155	0x3d6966c9	0.05698279
156	0x3e0be491	0.1366141
157	0x3de0017d	0.10937784
158	0xbd68dde5	-0.05685224
159	0xbe9f79b3	-0.31147537
160	0x3e805aa7	0.25069162
161	0x3e7dea18	0.24796331
162	0x3e6f4162	0.23364785
163	0xbe94533e	-0.2896976
164	0x3e22d2dc	0.15900749
165	0xbe7b4dfd	-0.24541469
166	0xbcf53036	-0.029930215
167	0x3e1259ef	0.1429212
168	0xbe8d5307	-0.27602407
169	0x3e2846d5	0.1643327
170	0x3e2131c2	0.15741637
171	0xbe6adbdc	-0.22935432
172	0xbe38d351	-0.18049361
173	0xbe9327aa	-0.287412
174	0xbe07c696	-0.13259348
175	0x3e953729	0.29143646
176	0xbe336309	-0.17518248
177	0xbe6ec701	-0.23318101
178	0x3b64cb05	0.0034911048
179	0xbe01a762	-0.12661508
180	0xbe25b086	-0.1618062
181	0x3e694beb	0.22782867
182	0x3e390d28	0.18071425
183	0x3c752010	0.014961258
184	0xbe946b51	-0.28988126
185	0xbe757a4a	-0.23972431
186	0x3dd3fe3f	0.10351228
187	0xbd139cef	-0.036038335
188	0x3d26da4b	0.040735524
189	0x3e555097	0.20831524
190	0x3e1abfaf	0.15112184
191	0x3d9824d8	0.074289024
192	0x3caa1d42	0.020765904
193	0xbdb603d1	-0.08887447
194	0x3d4d7612	0.05016143
195	0x3e257ca5	0.1616083
196	0x3ccb78ee	0.024837937
197	0xbcf40f99	-0.029792594
198	0x3e31ae79	0.17351712
199	0xbe16aedb	-0.1471514
200	0x3d03d337	0.032183852
201	0xbda7bdf5	-0.08190528
202	0x3e6fc5c0	0.2341528
203	0x3df4b872	0.11949243
204	0xbe1cf908	-0.15329373
205	0x3e751cbe	0.23936746
206	0x3e5dab0b	0.21647279
207	0xbd4442f4	-0.047915414
208	0xbe859809	-0.26092556
209	0xbd3b9cff	-0.04580402
210	0xbc5d3584	-0.013501529
211	0x3d9b6261	0.07587124
212	0x3e7c2f7a	0.24627486
213	0xbe8084d0	-0.25101328
214	0xbe3e38c8	-0.18576348
215	0x3ea17ed9	0.3154209
216	0xbe1c797d	-0.15280719
217	0x3bcb346a	0.0062013166
218	0xbde6dc8b	-0.11272534
219	0x3e5f422d	0.21802588
220	0x3e04a232	0.12952498
221	0xbe0633d9	-0.13105716
222	0x3e1b5aa4	0.15171295
223	0x3e9b4fff	0.3033447
224	0x3e7f8ea9	0.24956764
225	0xbe1e418d	-0.15454693
226	0x3e025210	0.12726617
227	0x3db49839	0.08818097
228	0xbe948249	-0.2900565
229	0x3d9b1a9a	0.07573433
230	0xbe68e5f5	-0.22743972
231	0xbe846c14	-0.25863707
232	0xbe9ed143	-0.3101903
233	0xbd8375c7	-0.064189486
234	0x3d810bb5	0.06301061
235	0xbd2c8aaa	-0.042124428
236	0x3e423939	0.18967141
237	0x3e863189	0.26209667
238	0xbe4d9748	-0.2007724
239	0x3c06822d	0.008209747
240	0x3e87f474	0.2655369
241	0x3d97a712	0.07404913
242	0xbe91d556	-0.28483075

bias_ih_l0 f4 [27]
0	0x3e40be19	0.18822517
1	0x3dc8214a	0.097719744
2	0xbe8eedfb	-0.2791594
3	0xbd0e032d	-0.034670997
4	0xbc798592	-0.0152296
5	0x3e1eda86	0.15513048
6	0xbdf36cc8	-0.11885983
7	0x3ddde7bb	0.10835215
8	0xbe2346ea	-0.1594502
9	0x3e8b383e	0.27191347
10	0xbe8c2dfc	-0.27378833
11	0xbd14a5d3	-0.036290955
12	0xbea88217	-0.3291175
13	0x3ea94d12	0.33066612
14	0xbbfe1b82	-0.007754744
15	0xbd7a2765	-0.061072726
16	0xbe971209	-0.29505947
17	0x3e3763ec	0.17909211
18	0x3ea64bdc	0.3247975
19	0x3e256023	0.16149954
20	0xbcc7812a	-0.024353582
21	0x3e568c69	0.20952
22	0x3db68603	0.089122795
23	0x3e974eca	0.295523
24	0x3e89e26d	0.26930562
25	0x3e21a8b9	0.15787019
26	0xbe8fadb8	-0.28062224

bias_hh_l0 f4 [27]
0	0x3c9ad4b6	0.018900257
1	0x3e713df1	0.23558785
2	0xbd8cb863	-0.068711065
3	0xbe802aa8	-0.25032544
4	0xbd064072	-0.032776304
5	0x3e60e02a	0.21960512
6	0x3e2ca3fe	0.16859433
7	0x3e164775	0.14675696
8	0x3e8635b0	0.26212835
9	0xbe649a27	-0.2232443
10	0xbe2df298	-0.16987073
11	0x3d639d10	0.05556971
12	0x3db50d7d	0.08840463
13	0x3d69428d	0.056948233
14	0xbe6d8996	-0.23197016
15	0xbd937edc	-0.07201931
16	0x3e9042e8	0.28176045
17	0xbe8d3a39	-0.27583483
18	0xbe8c45c4	-0.27396977
19	0xbe5f4c5e	-0.21806476
20	0x3dd1b348	0.10239273
21	0x3e39af45	0.18133266
22	0xbc87be08	-0.016570106
23	0xbe8f4408	-0.2798159
24	0xbcc25f9f	-0.023727236
25	0x3dd4cf8a	0.103911474
26	0xbdfca62f	-0.123363845

weight_ih_l0 f4 [27, 24]
0	0x3dc6d908	0.09709364
1	0x3da0d184	0.07852462
2	0xbe8f247e	-0.2795753
3	0x3e99d31f	0.30043885
4	0xbe26ae1f	-0.1627736
5	0xbe0efbb3	-0.13963203
6	0xbe64e841	-0.22354223
7	0xbe8b2d8f	-0.27183196
8	0x3e9ae0c0	0.30249596
9	0x3d693cd5	0.05694278
10	0x3a17c27e	0.00057891745
11	0x3e2c740c	0.16841143
12	0xbd04b62f	-0.032400306
13	0x3e4043c4	0.1877585
14	0x3dd0c7e8	0.10194379
15	0xbe1476da	-0.14498463
16	0xbe076534	-0.132222
17	0xbe472292	-0.19446781
18	0xbe5587b8	-0.20852554
19	0xbbf6c91c	-0.0075312983
20	0xbdd5f781	-0.10447598
21	0x3e172a57	0.14762245
22	0x3dbbb844	0.09166005
23	0x3e88bc07	0.26705953
24	0xbe28392a	-0.16428056
25	0x3c7a5a58	0.015280329
26	0x3e13b56d	0.14424677
27	0xbd82ded0	-0.06390154
28	0x3e85de58	0.26146197
29	0x3e81fda8	0.25388837
30	0x3d1fd613	0.039022516
31	0x3d762273	0.060091447
32	0xbdd8a020	-0.105774164
33	0xbd46a37a	-0.048495747
34	0x3e0aedd7	0.13567291
35	0xbe9fc99d	-0.31208506
36	0xbcee6bc9	-0.02910413
37	0x3d25996d	0.04042952
38	0x3e13314d	0.14374276
39	0x3daac090	0.0833751
40	0xbd663e57	-0.056211796
41	0x3d88630f	0.06659519
42	0xbe4f989e	-0.20273063
43	0x3e1737b4	0.14767343
44	0x3d595fb5	0.05306979
45	0xbe1039dc	-0.14084572
46	0x3e148d04	0.14506918
47	0x3e58e420	0.21180773
48	0x3d29edb7	0.04148647
49	0x3e78658e	0.2425749
50	0xbe38609a	-0.180056
51	0xbd317ffd	-0.04333495
52	0xbdaa1893	-0.083054684
53	0xbe5c8ead	-0.21538801
54	0x3e0831e2	0.13300279
55	0xbe0ae057	-0.13562141
56	0x3e2bfbb5	0.16795237
57	0xbdb0ed47	-0.08639007
58	0x243e3025	4.1240463e-17
59	0x3d18c43e	0.037296526
60	0xbe32d311	-0.17463328
61	0xbe57439d	-0.21021886
62	0xbdb694b9	-0.08915085
63	0x3d35ad5d	0.044354785
64	0xbdedcef7	-0.11611741
65	0x3d210b8c	0.039317653
66	0x3df12982	0.11775495
67	0xbddcbe19	-0.10778446
68	0x3ce54c2d	0.027990425
69	0xbe148376	-0.14503273
70	0xbdadc5dc	-0.08485004
71	0x3de5d0b1	0.11221445
72	0x3e7a9401	0.24470522
73	0xbdd40755	-0.10352961
74	0x3d63b748	0.055594712
75	0xbdbba719	-0.09162731
76	0xbdc4adac	-0.09603438
77	0x3e0ba352	0.1363652
78	0xbe240467	-0.16017304
79	0xbe365a16	-0.17807803
80	0x3e74f051	0.23919798
81	0xbe2c2f23	-0.16814856
82	0x3da1fbd6	0.07909362
83	0xbcf2e98f	-0.029652385
84	0x3d25233f	0.040316816
85	0xbd9c3cce	-0.07628785
86	0x3d36b1f0	0.04460329
87	0xbe231cfd	-0.15929027
88	0xbd7c162a	-0.061544575
89	0xb9ea0f3e	-0.00044643314
90	0x3e0edddc	0.1395182
91	0x3e068d76	0.131399
92	0x3e2ca81c	0.16861004
93	0x3e17fe82	0.14843181
94	0xbd1e79bf	-0.038690325
95	0x3e75dd7f	0.24010275
96	0xbe199d15	-0.15001328
97	0x3e10b176	0.14130196
98	0x3e89059c	0.26762092
99	0x3e646f1a	0.22308007
100	0xbe9841db	-0.29737744
101	0xbc8c0fee	-0.01709744
102	0x3bbecec8	0.00582299
103	0x3e3a0740	0.18166828
104	0xbea3eeaf	-0.3201804
105	0x3e63b06b	0.22235267
106	0xbe283659	-0.16426982
107	0x3e1ab53c	0.15108198
108	0x3be4efd7	0.006986599
109	0x3de0471d	0.10951064
110	0xbdb725fe	-0.08942793
111	0xbe89eaca	-0.26936942
112	0xbd87446c	-0.06604847
113	0xb5595ae1	-8.0971046e-07
114	0x3ab923e3	0.0014125075
115	0xbe667b45	-0.22507961
116	0xbd0cade0	-0.034345508
117	0x3e136f56	0.1439794
118	0x3e88ae24	0.2669536
119	0xbe9bf37d	-0.30459204
120	0xbde722e9	-0.112859555
121	0xbdc25c6d	-0.09490285
122	0x3e8559be	0.2604503
123	0xbe8897f3	-0.26678428
124	0xbe06340e	-0.13105795
125	0xbe619763	-0.22030406
126	0x3c7e69b7	0.015528134
127	0x3dee22bb	0.11627718
128	0xbe8ebdc3	-0.27879152
129	0x3d860409	0.065437384
130	0x3cfed20e	0.031106021
131	0x3d990de7	0.07473355
132	0xbd30534b	-0.043048184
133	0x3e602e98	0.21892774
134	0x3dd4507c	0.10366914
135	0xbc5785c7	-0.013154454
136	0xbe307480	-0.17231941
137	0xbbb9f700	-0.0056751966
138	0x3e30c72e	0.17263481
139	0xbe3421f2	-0.17591074
140	0xbc0ece07	-0.008716113
141	0x3c5dc8f7	0.013536683
142	0xbd945571	-0.07242859
143	0x3e86dd15	0.26340547
144	0xbe811556	-0.2521159
145	0xbe835909	-0.25653866
146	0x3e821234	0.25404513
147	0xbe38d9c2	-0.18051818
148	0x3e2061c9	0.15662302
149	0xbde2c0cb	-0.110719286
150	0xbe89282e	-0.26788467
151	0x3e70ee51	0.2352841
152	0xbe85ea26	-0.26155204
153	0xbe8d13a4	-0.27554047
154	0x3dc9fa2d	0.0986217
155	0xbe7e06ee	-0.24807331
156	0x3e1a99c1	0.15097715
157	0x3d7b5003	0.061355602
158	0xbe586190	-0.21130967
159	0xbe81d874	-0.25360453
160	0xbd76a4cd	-0.06021576
161	0xbdc9d8f7	-0.09855836
162	0xbd814651	-0.0631224
163	0xbe060502	-0.13087848
164	0xbe6885fe	-0.22707364
165	0x17f71f47	1.5969896e-24
166	0xbe0abab8	-0.1354779
167	0x3e765511	0.24055888
168	0x3e7b6d02	0.24553302
169	0x3cc96f80	0.0245893
170	0xbe542cb5	-0.2072018
171	0x3e86fe6f	0.26365992
172	0xbe4717ef	-0.19442724
173	0xbe50ced8	-0.20391405
174	0xbe4e8fc7	-0.20172034
175	0x3e7ab602	0.24483493
176	0xbe9478ec	-0.28998506
177	0x3b7b5a8f	0.0038353538
178	0xbe1cc08e	-0.15307829
179	0x3dfc3552	0.123148575
180	0x3d38ee20	0.04514897
181	0xbd734107	-0.059388187
182	0xbe820316	-0.2539298
183	0x3d36ab79	0.044597123
184	0x3e10521a	0.1409382
185	0x3b88ab6d	0.004170826
186	0x3e794ca5	0.24345644
187	0x3ea2fdb8	0.31834197
188	0x3d6750ca	0.05647353
189	0xbd85f624	-0.06541088
190	0xbe8e0728	-0.27739835
191	0xbd02a3a4	-0.03189434
192	0xbc7e3fe9	-0.015518167
193	0xbdec1e8c	-0.11529264
194	0x3e84ddad	0.25950375
195	0xbdefb721	-0.11704851
196	0x3bc27a75	0.005935008
197	0x3e68c934	0.22733003
198	0x3e9b3080	0.3031044
199	0xbe521f51	-0.20519759
200	0x3e389a29	0.18027557
201	0x3d2b6e43	0.0418532
202	0x3e186e5b	0.14885847
203	0x3e8b4035	0.27197424
204	0xbe4d505e	-0.20050189
205	0x3e484cd2	0.19560555
206	0x3d8f8d6a	0.070093945
207	0x3e90a2e8	0.28249288
208	0xbe9cfe84	-0.3066293
209	0x3cd48f70	0.025947303
210	0x3ddbbcb8	0.107293546
211	0xbe7c68e8	-0.24649394
212	0x3cfc37a1	0.030788245
213	0x3dbf3718	0.0933668
214	0x3d160903	0.036629688
215	0x3cf72cc2	0.03017271
216	0xbe1a959b	-0.15096132
217	0x3e748cfd	0.23881908
218	0xbe23b2e0	-0.15986204
219	0x3d8eb4c8	0.06968075
220	0x3d5d22c8	0.053988248
221	0xbe750b67	-0.23930131
222	0x3e8819ea	0.2658227
223	0x3e2990b4	0.16559106
224	0xbdc49e37	-0.096004896
225	0xbdace032	-0.08441199
226	0xbd250ffe	-0.040298454
227	0xbd30b73d	-0.0431435
228	0x3d47a216	0.04873856
229	0xbe46865d	-0.19387193
230	0x3e5ebeca	0.21752468
231	0x3db34fe4	0.08755472
232	0xbe8853fd	-0.26626578
233	0x8dae7497	-1.0751646e-30
234	0xbe5ff37a	-0.21870223
235	0x3e42c321	0.19019748
236	0xbe0bb28e	-0.13642332
237	0x3b378382	0.0028001969
238	0x3e7c30f9	0.24628057
239	0x3e322392	0.17396381
240	0x3e8b1759	0.2716625
241	0xbe79c983	-0.24393277
242	0xbc4ab10e	-0.012371315
243	0xbe1e7b4f	-0.15476726
244	0xbe0677bf	-0.13131617
245	0xbe848c13	-0.25888118
246	0x3e1bb1cf	0.15204547
247	0x3e531167	0.20612107
248	0xbe738995	-0.23782952
249	0xbe703412	-0.23457363
250	0xbe0ef5c3	-0.13960938
251	0x3e8084c3	0.2510129
252	0xbe979a53	-0.29609928
253	0xbea23ef6	-0.3168866
254	0xbe8f335c	-0.27968872
255	0xbe33544a	-0.17512622

weight_hh_l0 f4 [27, 9]
0	0xbd15ae9a	-0.036543466
1	0xbe5f5da6	-0.21813068
2	0xbe86b4b1	-0.26309732
3	0x3d0b4edd	0.034010757
4	0xb5971d04	-1.1258821e-06
5	0x3e1eaede	0.15496394
6	0xbdeb531f	-0.114904635
7	0x3d8b386e	0.067978725
8	0x3e392f4d	0.1808445
9	0xbd2aa750	-0.041663468
10	0x3e74442b	0.23854129
11	0xbd932fb2	-0.071868315
12	0xbe023c21	-0.1271825
13	0xbd683427	-0.05669036
14	0x3dabf45d	0.08396218
15	0xbe38eb48	-0.18058503
16	0x3dd19cd2	0.10234989
17	0x3e111e01	0.14171602
18	0x3d7e67c0	0.062110662
19	0x3db8893f	0.090105526
20	0x3e4f0a2d	0.20218726
21	0xb9656b07	-0.00021879013
22	0x3d8b1d4b	0.067926966
23	0xbd672d5a	-0.056439735
24	0x3e3c96d5	0.18416913
25	0xbdd27d75	-0.10277835
26	0xbe27a5a5	-0.16371782
27	0x387fdc39	6.1001836e-05
28	0x3d0f043e	0.034916155
29	0x3dabbdbf	0.083858006
30	0x3e5669e6	0.20938835
31	0x3cb8c6db	0.02255576
32	0x3abe8660	0.0014535896
33	0xbb2b276e	-0.0026116031
34	0x3bb9408d	0.005653447
35	0x3e6fbc66	0.23411712
36	0xbb8e9ba9	-0.004352052
37	0x3e7ab5de	0.2448344
38	0xbe0655ac	-0.13118619
39	0x3daa471a	0.08314343
40	0x3a0efac5	0.00054542377
41	0x3e89e4a1	0.26932243
42	0xbe88329f	-0.2660112
43	0xb929e3e3	-0.0001620199
44	0x3e3644cb	0.1779968
45	0x3b6c6ab6	0.0036074347
46	0xbb34accf	-0.0027568822
47	0xbe84147d	-0.2579688
48	0xbb57e775	-0.0032944356
49	0x3a8df9cf	0.0010831895
50	0xbdda23f3	-0.10651388
51	0xbdcb7548	-0.09934479
52	0x3d87dcf4	0.0663394
53	0x3e6c451f	0.23073243
54	0x3dc47204	0.09592059
55	0x3e06cd66	0.13164291
56	0xbd832d47	-0.0640512
57	0xbe1e9a02	-0.15488437
58	0xbcc1ca33	-0.023655986
59	0x3e1864de	0.14882228
60	0xbe8ef293	-0.27919444
61	0x3acbeeec	0.0015558875
62	0xbea4a1f8	-0.32154822
63	0x3c7059c5	0.01466984
64	0x3d95b8fe	0.07310675
65	0x3d13cdd3	0.03608496
66	0xbe446e86	-0.19182786
67	0x3d3cb290	0.046068728
68	0x3e59c2ba	0.21265689
69	0x3e6e8757	0.23293816
70	0xbe3f159e	-0.1866059
71	0xbe96d501	-0.29459384
72	0xbd0120b1	-0.031525318
73	0x3daaae6d	0.0833405
74	0xbe91ecfa	-0.2850111
75	0xbe2677b1	-0.16256596
76	0x13295c99	2.1376453e-27
77	0xbd82c5b5	-0.06385366
78	0x3df8befd	0.12145803
79	0xbe2e09ea	-0.1699597
80	0x3e8c2d1a	0.2737816
81	0xbe084ca7	-0.1331049
82	0x3db0f56c	0.086405605
83	0x3e841059	0.25793722
84	0x3d81bd54	0.063349396
85	0xbdc51c25	-0.09624509
86	0xbe9d52de	-0.30727285
87	0xbe2a8018	-0.16650426
88	0x3db8ed96	0.09029691
89	0xbd8cff66	-0.06884651
90	0x3e1e8ae4	0.1548267
91	0x3e35bdcd	0.17748185
92	0x3daa5c5f	0.083184
93	0x3db21a77	0.08696454
94	0xbd880496	-0.066415
95	0x3d2cfb35	0.042231757
96	0x3b23d0bb	0.002499624
97	0xbd6aa044	-0.057281747
98	0xbe8e3f91	-0.27782872
99	0x3e4eaf11	0.2018397
100	0xbe910b21	-0.28328803
101	0xbd5ebf39	-0.054381583
102	0x3e285e5d	0.16442247
103	0xbe180070	-0.14843917
104	0x3c31bec5	0.010848706
105	0xbe92bae1	-0.28658202
106	0x3b72a9dc	0.0037027514
107	0x3e944b2c	0.28963602
108	0x3b25cdd9	0.0025299697
109	0x3e5c0f05	0.21490104
110	0x3e812708	0.2522509
111	0x3d80aabc	0.06282565
112	0xb28503bf	-1.5484941e-08
113	0x3d9f3f72	0.07775773
114	0xbdf20f39	-0.1181931
115	0x3dfb5c6b	0.12273487
116	0x3db7d9dc	0.089771
117	0x3b0d97cd	0.0021605373
118	0xbdc6932c	-0.096960396
119	0xbdc8d127	-0.09805518
120	0x3e589e48	0.2115413
121	0x3d9ac030	0.07556188
122	0x3e8350d5	0.25647607
123	0xbda70897	-0.08155935
124	0xbd80a72e	-0.06281887
125	0x3e971fa1	0.29516318
126	0xbe4329fd	-0.19058986
127	0x3ddf730b	0.109106146
128	0x3d3ed7b7	0.04659244
129	0x3d088262	0.033327468
130	0x3e24294c	0.16031379
131	0x3c15e860	0.009149641
132	0xbe7f0dbb	-0.24907582
133	0xbe15292a	-0.14566484
134	0x3e1d1780	0.15340996
135	0xbd9b53c0	-0.075843334
136	0xbb1beec8	-0.0023793448
137	0x3cd688a4	0.026188202
138	0xb6610ec5	-3.353621e-06
139	0xbe098097	-0.1342796
140	0x3d432370	0.047641218
141	0x3da36a60	0.07979274
142	0xb765eb7c	-1.3704292e-05
143	0x3d2e2b05	0.042521495
144	0x3d95fdbb	0.07323786
145	0xbe8d1a63	-0.27559194
146	0xbe1c9552	-0.15291336
147	0xa13e8a24	-6.455733e-19
148	0x8c1908fd	-1.1789396e-31
149	0x3dbf5c1e	0.09343742
150	0xbe3af696	-0.18258128
151	0x3e118fe8	0.14215052
152	0x3dda3eb3	0.1065649
153	0x3e76e0cb	0.24109189
154	0xbe925786	-0.285824
155	0xbe73dd94	-0.23814994
156	0xbc1940b7	-0.009353808
157	0xbceb614f	-0.028732924
158	0xbd122d07	-0.035687473
159	0xbe4c5ac0	-0.19956493
160	0xbdb690ba	-0.08914323
161	0x3e09e0c0	0.13464642
162	0xbd65d5aa	-0.05611197
163	0x3e8513d5	0.25991693
164	0x3e905419	0.2818916
165	0xbe3b7cd3	-0.18309335
166	0x3db9fd6f	0.09081542
167	0xbe986df9	-0.29771402
168	0xbe938b9c	-0.2881745
169	0x3d4c2eec	0.049849436
170	0x3e8944f9	0.26810434
171	0x3e597141	0.21234609
172	0xbe4fe6cd	-0.20302887
173	0x3ea61278	0.32435966
174	0x3cd814ea	0.02637716
175	0xb9d02bf6	-0.00039705605
176	0x3e287601	0.16451265
177	0xbe8431de	-0.25819296
178	0x3d015a8b	0.03158049
179	0xbe3db7a7	-0.18527089
180	0x3d96c3a0	0.07361531
181	0x3e9c0c8a	0.30478317
182	0xbe23ec69	-0.16008152
183	0xbda3f043	-0.08004811
184	0xbcd15283	-0.02555204
185	0x3dc6c8f4	0.097062975
186	0x3e97f9af	0.2968268
187	0x3d44822d	0.047975708
188	0xbe5b3428	-0.21406615
189	0x3e837172	0.2567249
190	0x3df3e9a9	0.119098015
191	0x3e77f1b0	0.2421329
192	0xb725376c	-9.84767e-06
193	0x3179c21e	3.6344612e-09
194	0x3dd0b7c8	0.101913035
195	0xbd04afd0	-0.03239423
196	0x3de8e0e8	0.113710225
197	0x3d917aee	0.07103525
198	0x3d3f4a76	0.04670187
199	0x3e28702c	0.1644904
200	0xbe928cb9	-0.28622988
201	0x39c113f4	0.00036826695
202	0xbda23cc8	-0.07921749
203	0x3e6a0f0b	0.22857301
204	0xbe635f3e	-0.22204301
205	0xbe00dd24	-0.12584358
206	0xbcaf0ff6	-0.021369915
207	0xbd919b93	-0.071097516
208	0x3e7b2689	0.24526419
209	0x3d8d50af	0.06900155
210	0x3e17e3b4	0.14832956
211	0xbe44bd18	-0.19212759
212	0xbded4453	-0.115852974
213	0x3de02ca1	0.10946012
214	0x37a9c987	2.0240213e-05
215	0xbc805f04	-0.015670307
216	0x3d732ff2	0.059371896
217	0x3de46a99	0.111531444
218	0x3e950208	0.29103112
219	0xbe48da0e	-0.19614431
220	0xbe26f8d7	-0.16305862
221	0xbdbffc46	-0.09374289
222	0xbe51736a	-0.20454183
223	0x1acd8d87	8.501466e-23
224	0x3d70a93c	0.058755144
225	0x3dc67ca0	0.09691739
226	0xbdffb3da	-0.12485476
227	0xbce2eb0f	-0.027699975
228	0xbe308cce	-0.17241213
229	0x2d0f3b1f	8.141736e-12
230	0x3e37ddfe	0.17955777
231	0x3a8ab52c	0.0010582558
232	0x3da80243	0.082035564
233	0x3dd1b6a4	0.10239914
234	0x3e7bbf30	0.24584651
235	0xbe320f9d	-0.17388768
236	0xbdc672f7	-0.096898966
237	0xbe4ec5c4	-0.20192629
238	0xbe019459	-0.12654246
239	0xbe8c05a9	-0.27348068
240	0xbd90ad11	-0.0706426
241	0xbc8f63a1	-0.017503561
242	0xbe27d27e	-0.1638889

bias_ih_l0 f4 [27]
0	0x3d3cf8ce	0.046135716
1	0xbea4246e	-0.32059044
2	0x3d895e3a	0.067074254
3	0x3dbf22b4	0.09332791
4	0xbe158d2e	-0.14604637
5	0xbe67710f	-0.22601722
6	0xbe9ed73c	-0.31023586
7	0x3e00e196	0.12586054
8	0x3d40cea9	0.047072086
9	0xbd0a0ca5	-0.033703465
10	0xbe42b09c	-0.19012684
11	0x3e52036c	0.20509118
12	0xbde04155	-0.10949961
13	0x3e40944e	0.18806574
14	0x3e90276b	0.28155074
15	0x3dcba6da	0.09943934
16	0x3ddf74a9	0.10910923
17	0x3e8506c1	0.25981715
18	0x3d30b316	0.04313954
19	0x3e1b4c0d	0.1516573
20	0xbe886585	-0.26639953
21	0x3d3cdc4c	0.04610853
22	0xbe4ea75b	-0.20181029
23	0xbe709b1a	-0.23496667
24	0xbe4f61ee	-0.20252201
25	0xbe836370	-0.25661802
26	0x3e643c2e	0.22288582

bias_hh_l0 f4 [27]
0	0xbc0ec579	-0.008714073
1	0x3dd1e726	0.10249166
2	0xbe883cfc	-0.26609027
3	0x3d5098bf	0.05092692
4	0x3e488f61	0.19585945
5	0x3e649fcd	0.22326584
6	0x3e38bf8b	0.18041818
7	0xbd135453	-0.03596909
8	0xbbd5b73d	-0.006522088
9	0xbe3341b1	-0.17505528
10	0xbde3f18f	-0.11130058
11	0x3e1e0151	0.1543019
12	0xbe4ad92f	-0.19809411
13	0xbd962095	-0.07330433
14	0x3e901e42	0.28148085
15	0xbe19485f	-0.14969014
16	0x3b632bbd	0.0034663521
17	0x3e1d2bfd	0.15348811
18	0x3ea4d17c	0.32191074
19	0x3e894e4c	0.26817548
20	0x3dc3b055	0.09555117
21	0xbd76768f	-0.06017166
22	0xbe823181	-0.25428393
23	0x3ce9d9ef	0.028546302
24	0x3ea42c26	0.32064933
25	0x3e423054	0.18963748
26	0xbcc14aba	-0.023595203

weight_ih_l0 f4 [3, 11]
0	0x3f4b97fa	0.7952877
1	0x3f0d0921	0.55092055
2	0xbf0ed1dc	-0.5578897
3	0xbe9005ae	-0.28129333
4	0x3f4adc4d	0.792424
5	0x3f331b13	0.69963187
6	0xbf0377ce	-0.5135468
7	0x3f3e4182	0.74318707
8	0xbc39f853	-0.011350709
9	0x3f4ca94e	0.7994584
10	0xbea70b4a	-0.326258
11	0x3e69e3eb	0.2284085
12	0xbdc657ee	-0.0968474
13	0x3ee085c7	0.43852064
14	0x3f14a3b5	0.580623
15	0xbf442b91	-0.7662898
16	0xbee4a483	-0.44656762
17	0xbd578200	-0.052614212
18	0x3f058883	0.52161425
19	0x3edf8a40	0.43660164
20	0xbba3c76f	-0.0049981396
21	0xbde98410	-0.11402142
22	0xbf31ee1c	-0.6950395
23	0x3eb9fd8a	0.36326247
24	0xbf503306	-0.81327856
25	0xbd31a8d7	-0.04337391
26	0xbeb4915c	-0.3526715
27	0x3f6617b0	0.89879894
28	0xbf71ef43	-0.9450571
29	0xbf5287cb	-0.82238454
30	0xbf2eb56a	-0.68245566
31	0xbeecf576	-0.46281022
32	0xbe366134	-0.17810518

weight_hh_l0 f4 [3, 1]
0	0xbd9f18a4	-0.07768372
1	0x3f00f10a	0.50367796
2	0xbed1d91f	-0.40985963

bias_ih_l0 f4 [3]
0	0xbf653dd5	-0.89547473
1	0x3ea5c69d	0.32378092
2	0xbe1e2f7b	-0.154478

bias_hh_l0 f4 [3]
0	0xbd076b0c	-0.033061072
1	0xbf1f7180	-0.6228256
2	0x3ecf2908	0.40460992

weight f4 [1, 9]
0	0xbd68ac61	-0.05680502
1	0xbe95ac36	-0.2923295
2	0x3e813deb	0.25242552
3	0x3e3e0348	0.18555939
4	0x3d38cada	0.04511533
5	0xbe67da9d	-0.22641988
6	0x3ea1f031	0.31628564
7	0xbd4f64d2	-0.05063326
8	0x3e65ce34	0.22441941

weight f4 [400, 10]
0	0xbe0bae81	-0.13640787
1	0x3e43e8a5	0.19131716
2	0xbdd0e542	-0.101999775
3	0x3cf58762	0.029971782
4	0xbd045f9d	-0.032317746
5	0xbe8f968c	-0.28044546
6	0x3de53e97	0.11193579
7	0xbe157c68	-0.14598238
8	0x3e401bfc	0.18760675
9	0xbdea8036	-0.114502355
10	0x3e8b0543	0.27152452
11	0x3d55215a	0.05203376
12	0xbe141809	-0.14462294
13	0xbe4c2eb0	-0.19939685
14	0xbe806818	-0.25079417
15	0xbe0aaf2b	-0.13543384
16	0x3d330a4b	0.043710988
17	0xbe708773	-0.2348917
18	0x3dfd8623	0.123791
19	0xbe944758	-0.2896068
20	0x3e771013	0.24127226
21	0x3cc25333	0.023721313
22	0x3c5cf28d	0.013485563
23	0x3d915dd0	0.070979714
24	0xbe39e265	-0.18152769
25	0xbdfed381	-0.12442685
26	0x3dd3ba26	0.10338239
27	0xbe69fdcd	-0.22850724
28	0x3e8babc4	0.27279484
29	0xbe8948ea	-0.26813442
30	0xbe185a7b	-0.14878266
31	0x3e510f00	0.20415878
32	0x3e5c88ec	0.21536607
33	0x3e5a085e	0.21292254
34	0xbe79e59d	-0.24403997
35	0x3e9e0b7c	0.30868137
36	0xbe428091	-0.18994357
37	0xbe8ccf63	-0.27501974
38	0xbe856eca	-0.26061088
39	0xbe6dcdcd	-0.23223038
40	0xb9fd5977	-0.00048322577
41	0xbe2b9f59	-0.16760005
42	0xbe60ed91	-0.21965624
43	0xbe8a96e8	-0.27068257
44	0xbe8fde1a	-0.28099138
45	0x3deb17ec	0.11479172
46	0xbe91518c	-0.28382528
47	0xbe4b8b1a	-0.19877282
48	0x3d56647b	0.05234192
49	0x3e6d7052	0.23187378
50	0x8cdda8b1	-3.415197e-31
51	0xbd25d342	-0.040484674
52	0x3cb5fc2a	0.022214968
53	0x3e1119fb	0.14170067
54	0xbc851a86	-0.016247999
55	0xbe30e196	-0.17273554
56	0x3e09f96b	0.13474052
57	0x3dd79b58	0.10527676
58	0x3dbad305	0.0912228
59	0x2e31b62c	4.040694e-11
60	0xbe014486	-0.12623796
61	0xbde83e03	-0.11339953
62	0xbe8b5d22	-0.27219492
63	0xbe972369	-0.29519203
64	0x3dfc066c	0.123059124
65	0xbe77ef63	-0.24212413
66	0x3de5c27b	0.11218735
67	0xbe01f0cb	-0.12689511
68	0x3e893dda	0.26805001
69	0xbe1e1c6d	-0.15440531
70	0xbe01d174	-0.12677556
71	0xbe72dad2	-0.23716286
72	0x3d0a30db	0.033738
73	0xbe04220b	-0.12903611
74	0x3e094008	0.13403332
75	0x3e4163ed	0.18885775
76	0x3dc706ed	0.09718118
77	0x3d89a030	0.067200065
78	0xbd895e1c	-0.06707403
79	0x3d7382dc	0.05945097
80	0x3a1b3d89	0.000592195
81	0x3c4244eb	0.011857252
82	0x3e12338f	0.1427748
83	0x3d200719	0.03906927
84	0x3d3254ab	0.043537777
85	0x3ddd77c7	0.10813861
86	0x3dbe6201	0.092960365
87	0x3df14118	0.11779994
88	0xb86951a4	-5.5627563e-05
89	0xbdca0a37	-0.098652296
90	0xbe2a62d3	-0.16639261
91	0xbc6c2b46	-0.014414614
92	0xbd2868cc	-0.041115567
93	0xbe8a1819	-0.2697151
94	0x3e55801b	0.2084965
95	0x3e590d77	0.21196543
96	0xbe524328	-0.2053343
97	0x3e9b18dc	0.30292404
98	0xbd262f13	-0.040572237
99	0xbe261808	-0.16220105
100	0x3e362ab9	0.17789735
101	0x3e7ba72c	0.2457549
102	0xbb706ecb	-0.0036687132
103	0x3e18b52e	0.14912865
104	0xbd88fb21	-0.06688524
105	0x3e63a5f5	0.22231276
106	0x3db539b9	0.088489
107	0xbe2f3996	-0.17111811
108	0x3e7eea27	0.2489401
109	0x3e04d083	0.12970166
110	0x3e268751	0.16262557
111	0xbcd3b482	-0.025842909
112	0xbe8c334e	-0.27382892
113	0xbe41e580	-0.18935204
114	0x3dbaf87f	0.09129428
115	0xbd290320	-0.041262746
116	0x3e4f47a0	0.20242167
117	0x3dcfbb51	0.1014315
118	0xbe7a5cb8	-0.24449432
119	0x3dd5a668	0.1043213
120	0xbde8d444	-0.113686115
121	0x3e04a7cb	0.12954633
122	0x3d166f32	0.036727138
123	0xbe81c967	-0.2534897
124	0xbe772d3f	-0.24138354
125	0x3de5d7ec	0.112228245
126	0x3e6aa9ae	0.2291629
127	0x3d24dcdd	0.040249694
128	0xbe798b53	-0.24369554
129	0x3e386c89	0.18010153
130	0x3e7eed5a	0.2489523
131	0x3c3ca643	0.011514249
132	0xbe68ca12	-0.22733334
133	0x3dfb967f	0.12284564
134	0xbe24ef86	-0.16106996
135	0x3e76de07	0.24108134
136	0xbe786703	-0.24258046
137	0xbdff7c7d	-0.12474916
138	0x3db2e847	0.0873571
139	0x3e88239e	0.26589674
140	0x3e172f33	0.14764099
141	0xbc9e20d3	-0.019302761
142	0xbe967cdf	-0.29392144
143	0xbe0110ec	-0.12604111
144	0x3e7d13c1	0.24714567
145	0x3e88a42e	0.2668776
146	0x3d2e029e	0.042482965
147	0xbd484e58	-0.04890284
148	0xbe8c7247	-0.27430937
149	0x3e0373fe	0.12837216
150	0x3ea0192f	0.31269214
151	0x3ea353b7	0.31899807
152	0xbe5d6961	-0.2162223
153	0xbe0e96ec	-0.1392476
154	0xbe4c7625	-0.19966944
155	0xbe90e077	-0.28296253
156	0x3e6011b9	0.2188176
157	0xbdaeb626	-0.08530836
158	0x3bd8405a	0.006599468
159	0xbe835766	-0.25652617
160	0x3e8f3725	0.2797176
161	0x3d1e744e	0.038685136
162	0x3dcc9be0	0.09990668
163	0x3e6c4209	0.23072065
164	0xbe559950	-0.20859265
165	0xbe38afad	-0.18035765
166	0xbe536eaf	-0.20647691
167	0xbe1c6cab	-0.15275829
168	0x3e30e5b0	0.17275119
169	0xbca4c15b	-0.02011173
170	0x3c9b656d	0.018969262
171	0x3deb5bec	0.11492142
172	0x3dbc3f7d	0.09191797
173	0xbdd0e515	-0.10199944
174	0xbe72c9fc	-0.23709863
175	0xbde2e68d	-0.1107913
176	0x3e79ba98	0.24387586
177	0x3e2db66d	0.16964121
178	0xbe068877	-0.13137995
179	0xbe856cff	-0.2605972
180	0xbd80c949	-0.06288392
181	0x3d574180	0.0525527
182	0x35760500	9.164942e-07
183	0xbda9459b	-0.08265229
184	0x3d955fba	0.07293649
185	0xbd980cbe	-0.074243054
186	0x3caf65f6	0.021410923
187	0xbdf11116	-0.11770837
188	0xbd53e423	-0.05173124
189	0xbadf57f0	-0.0017039757
190	0x3e7baf71	0.24578644
191	0xbe9b5bf1	-0.30343583
192	0x3e93a4b6	0.28836602
193	0xbcf883c8	-0.030336276
194	0x3de98b8f	0.11403572
195	0xbe9449a8	-0.28962445
196	0x3d7b400a	0.06134037
197	0xbe0a3018	-0.13494909
198	0x3caff74e	0.021480229
199	0xbd72c412	-0.05926902
200	0x0acb0339	1.9549401e-32
201	0x3188b309	3.978475e-09
202	0xbe04a3f4	-0.12953168
203	0x3b69bf16	0.0035666875
204	0x3daf6994	0.08565059
205	0xbd1405f7	-0.0361385
206	0x10083b06	2.686674e-29
207	0x3e26b0d7	0.16278397
208	0x38c9b7ce	9.618663e-05
209	0x3b694f46	0.003560023
210	0xbbaf57d0	-0.0053510442
211	0xbdfdc4aa	-0.12391026
212	0xbd4904e6	-0.049076937
213	0x3db84c81	0.08998967
214	0x3dfc0dde	0.123073325
215	0xbdcb9f01	-0.09942437
216	0xbbc26d37	-0.0059334296
217	0xbe39b390	-0.18134904
218	0xbda01833	-0.07817116
219	0x8b9cff80	-6.047345e-32
220	0xbdf443b0	-0.11926973
221	0xbe2c5cb4	-0.16832238
222	0x3dcabf99	0.098998256
223	0x3dfe52d0	0.12418139
224	0xbdd0f7d6	-0.10203521
225	0x3dd52ea5	0.10409287
226	0x3e320c34	0.17387468
227	0x3cd8d29a	0.02646761
228	0xbe217c64	-0.15770108
229	0x3e35e36d	0.17762537
230	0x3e1e1909	0.15439238
231	0xbd3cf613	-0.046133112
232	0x3db0e4a3	0.08637359
233	0x3d3b813b	0.04577754
234	0x3d9c1e9d	0.076230265
235	0x3e1058a5	0.14096315
236	0x3e4ef8b8	0.20212066
237	0xbdf9d874	-0.12199488
238	0xbe83309f	-0.25623032
239	0x3e9d7760	0.30755138
240	0x3e49e1b6	0.19715008
241	0x3e56a2ca	0.20960537
242	0xbe323394	-0.17402488
243	0x3d59fa94	0.053217486
244	0x3e802b2a	0.25032932
245	0xbe4d08fc	-0.20022959
246	0xbe3a142b	-0.18171756
247	0x3e925daa	0.28587085
248	0xbe86f0ca	-0.26355582
249	0xbe340f19	-0.17583884
250	0xb9ea92b3	-0.00044741257
251	0xa819e4c3	-8.542811e-15
252	0xbd4f4a44	-0.050607935
253	0x3cd887f8	0.026432022
254	0x3bcaaa8a	0.0061848806
255	0xbdcf7a5a	-0.101307586

bias f4 [400]
0	0x3ddcc429	0.10779602
1	0xbd798763	-0.06092013
2	0x3e30fc79	0.1728381
3	0x3e987b01	0.29781345
4	0x3e9e4716	0.3091361
5	0xbe31b68e	-0.17354795
6	0x3dcb140a	0.099159315
7	0x3dfabbec	0.122428745
8	0xbe3e3227	-0.18573819
9	0x3e1674bf	0.14692973
10	0xbdac4158	-0.08410901
11	0xbd8b86da	-0.0681283
12	0x3e17af80	0.14813042
13	0x3d9a367e	0.07529925
14	0xbd2c1c87	-0.042019393
15	0x3e941eac	0.2892965
16	0x3dc29103	0.09500315
17	0x3e36e5aa	0.17861047
18	0xbe11abe2	-0.14225724
19	0xbda1d20c	-0.079013914
20	0xbe12918f	-0.14313339
21	0xbe08fcb5	-0.1337765
22	0x3ddd7cfd	0.10814855
23	0xbe1e559f	-0.1546235
24	0xbd931a4a	-0.071827486
25	0xbe2bafe2	-0.16766313
26	0xbdfb0b26	-0.12257986
27	0x3e15b316	0.14619097
28	0x3e0f4f32	0.13995054
29	0x3e8c1766	0.27361602
30	0x3d1d1671	0.03835148
31	0xbe6a1452	-0.22859314
32	0xbe448b60	-0.19193792
33	0x3e20b515	0.15694077
34	0x3e392307	0.18079768
35	0x3e1eaab2	0.15494803
36	0xbd4b7f7e	-0.049682133
37	0xbcc73832	-0.024318788
38	0xbe199044	-0.14996439
39	0x3e16f66b	0.14742438
40	0x3e994995	0.2993895
41	0x3e210f37	0.1572846
42	0x3e667865	0.22506864
43	0xbd0f0e1b	-0.03492556
44	0xbceddf3a	-0.029037107
45	0x3e2601ba	0.16211596
46	0x3e3d4784	0.18484312
47	0xbdbbb4c1	-0.091653354
48	0x3df18b59	0.117941566
49	0x3ddbabfe	0.10726164
50	0xbe455318	-0.19269979
51	0xbdaf05ec	-0.085460514
52	0x3be866a1	0.0070923124
53	0x3e41de57	0.18932472
54	0x3e50155b	0.20320646
55	0xbd97c023	-0.07409694
56	0x3e5508c5	0.20804127
57	0xbe1a6fce	-0.15081713
58	0xbe6e2d5a	-0.23259488
59	0xbcad4d46	-0.02115501
60	0x3e5453a1	0.20735027
61	0x3d04479c	0.032294855
62	0x3e7ea113	0.24866132
63	0xbbfad918	-0.007655274
64	0xbe3c1f45	-0.18371303
65	0x3de06161	0.109560736
66	0x3e194e16	0.14971194
67	0x3e11e0f3	0.14245968
68	0x3d16457f	0.03668737
69	0x3e083e7c	0.13305086
70	0x3e6aded4	0.22936565
71	0xbd3fa09b	-0.046784025
72	0xbbb12dfc	-0.005407093
73	0x3d933948	0.0718866
74	0xbd219c99	-0.039455984
75	0xb8cbdfef	-9.721505e-05
76	0xbded1c1d	-0.11577628
77	0xbe341751	-0.1758702
78	0x3e45cf4f	0.19317363
79	0x3e654ee6	0.22393379
80	0x3de5c497	0.11219137
81	0xbb305058	-0.0026903357
82	0x3e8c4a60	0.27400494
83	0x3e90ec2b	0.28305182
84	0x3d5636a6	0.05229821
85	0xbe1f77b5	-0.15573008
86	0xbc408b66	-0.011751985
87	0x3e3702d4	0.17872173
88	0x3d386b48	0.045024186
89	0xbda79810	-0.081833005
90	0x3dd2ea97	0.10298651
91	0xbe0cebd7	-0.13761841
92	0xbd6fc97a	-0.058541752
93	0x3dd64e3a	0.10464139
94	0xbe315e6f	-0.1732118
95	0xbe4a1088	-0.19732869
96	0x3e219bb2	0.1578205
97	0x3d3be45b	0.045872074
98	0xbe4d94af	-0.2007625
99	0x3dea9945	0.11455015
100	0xbe6b4fe8	-0.229797
101	0xbd4ea3ff	-0.050449368
102	0x3e54cef8	0.20782077
103	0x3e328be2	0.17436174
104	0x3b1d8d09	0.0024040362
105	0xbd7b3bdf	-0.061336394
106	0xbd892419	-0.06696338
107	0x3d80b922	0.06285311
108	0x3e006738	0.12539375
109	0xbe1796d8	-0.14803636
110	0xbd1be1da	-0.038057186
111	0xbddb3644	-0.1070371
112	0x3a09ebb8	0.000526126
113	0xbc0201ea	-0.007935027
114	0x3e92ffd8	0.28710818
115	0x3d189cea	0.03725902
116	0xbd3493ab	-0.04408614
117	0x3e9e6a4f	0.30940482
118	0x3e9b9b3d	0.30391875
119	0xbe1d8404	-0.15382391
120	0x3dcd8605	0.10035328
121	0xbcd92fea	-0.026512105
122	0x3e04cee9	0.12969555
123	0xbe080cf5	-0.13286193
124	0x3df1ac1b	0.11800405
125	0xbd61e33d	-0.055148352
126	0xbe4bca18	-0.19901311
127	0xbda45f31	-0.08025969
128	0xbad4a4b5	-0.0016223403
129	0x3d4f6724	0.050635472
130	0xbd942af6	-0.07234757
131	0xbdd84932	-0.10560836
132	0x3ddc618e	0.107607946
133	0xbe1f729a	-0.15571061
134	0x3da66763	0.08125188
135	0xbe33d7ab	-0.1756274
136	0xbd7c3c1b	-0.06158076
137	0xbdfbb98a	-0.12291248
138	0xbdaba9cb	-0.08381995
139	0xbdbf25c9	-0.09333379
140	0xbd4057c2	-0.046958692
141	0x3c9afb32	0.018918607
142	0xbcf13713	-0.029445207
143	0x3e05ac70	0.13054061
144	0xbe253c1c	-0.16136211
145	0xbd391536	-0.045186244
146	0xbdda6c1f	-0.10665154
147	0xbd1f353e	-0.038869135
148	0xbd1898b3	-0.037255
149	0xbe0da852	-0.1383374
150	0xbe3dd5d5	-0.18538602
151	0x3d94bcf6	0.07262604
152	0xbe3f02b1	-0.1865337
153	0xbdb70f8a	-0.08938511
154	0xbe333b8c	-0.17503184
155	0x3e25fa82	0.16208842
156	0x3e33414b	0.17505376
157	0xbd8d57f6	-0.06901543
158	0x3df4e89f	0.119584315
159	0xbdef59e8	-0.1168707
160	0xbd9a2129	-0.07525856
161	0x3e9babd2	0.30404526
162	0xbe26b41b	-0.16279642
163	0xbe1bd7a9	-0.15218987
164	0xbe31d021	-0.17364551
165	0x3e1d8ae0	0.15385008
166	0x3ded78c3	0.11595299
167	0xbde0ca1a	-0.10976048
168	0x3e592ccd	0.21208496
169	0x3e9c6667	0.30546877
170	0xbe2a6da3	-0.16643386
171	0xbe5e1bfd	-0.21690364
172	0xbe94188f	-0.28924987
173	0x3de60ed2	0.112332955
174	0xbdf7af40	-0.12093973
175	0x3e90acb3	0.2825676
176	0xbc8fd50c	-0.017557643
177	0xbe2cf6e0	-0.1689105
178	0xbe207193	-0.15668325
179	0x3d6e552b	0.05818669
180	0xbc961555	-0.018320719
181	0xbd5b66e6	-0.05356493
182	0x3e9c6426	0.30545157
183	0xbde0a741	-0.10969401
184	0xbcbdc493	-0.023165023
185	0xbcb59587	-0.022166027
186	0x3dda6606	0.10663991
187	0xbe1b5edc	-0.15172905
188	0xbe4494a1	-0.19197322
189	0xbdfe80a4	-0.1242688
190	0xbcec9644	-0.028880246
191	0xbdedf084	-0.1161814
192	0x3dc195ef	0.09452426
193	0xbdec0f57	-0.11526363
194	0xbdb63147	-0.08896118
195	0xbe260718	-0.16213644
196	0x3c2c7d42	0.010527911
197	0xbe238833	-0.15969925
198	0x3e8b9ed2	0.27269608
199	0x3cfc84a5	0.030824969
200	0xbd3c5d40	-0.045987368
201	0xbc36ea4a	-0.011164257
202	0xbe7f63a1	-0.24940349
203	0x3e92cbff	0.28671262
204	0x3cc64e45	0.024207244
205	0x3e47dc71	0.19517685
206	0x3e7afd05	0.24510582
207	0xbd0518a0	-0.032494187
208	0xbe08e1b7	-0.13367353
209	0xbd27e82a	-0.040992893
210	0x3e3868ee	0.18008777
211	0xbcfb09f6	-0.030644398
212	0xbd821d5e	-0.063532576
213	0x3e69c842	0.22830299
214	0x3e08f472	0.13374498
215	0x3e873e40	0.2641468
216	0x3e3b6049	0.18298449
217	0x0bd22fed	8.096117e-32
218	0x3df6739c	0.120337695
219	0xbcc7f724	-0.024409838
220	0xb8267a3a	-3.9691316e-05
221	0xbe32d6fc	-0.17464823
222	0xbd9d4a16	-0.076801464
223	0x3e24c200	0.1608963
224	0xbe43680b	-0.19082658
225	0x3e9f7091	0.3114057
226	0xbe205327	-0.1565672
227	0x3d98d1ee	0.07461916
228	0xbdd83a6a	-0.105580166
229	0x3d1794ee	0.037007265
230	0x3ca2866a	0.019839484
231	0x3e72bfc4	0.23705965
232	0x3e3fa9e9	0.1871716
233	0xbe5ed217	-0.2175983
234	0x3d7ad60a	0.06123928
235	0xbdd4d784	-0.10392669
236	0x3dc2367a	0.09483047
237	0x3e624733	0.22097473
238	0xbdaa599a	-0.083178714
239	0x3b9dad09	0.004811887
240	0x3e3f2e8e	0.18670103
241	0x3bdf0d10	0.006806977
242	0x3d5699c0	0.05239272
243	0xbd0e5297	-0.034746733
244	0xbd809f68	-0.06280404
245	0xbe0e0fef	-0.13873266
246	0x3e709529	0.234944
247	0x3cacd775	0.021098832
248	0xbd7e0186	-0.06201317
249	0x3e7da83f	0.24771212
250	0xbdeb9b05	-0.11504177
251	0xbbf26977	-0.0073978263
252	0x3dfff686	0.124981925
253	0xbe459d92	-0.1929839
254	0xbd73e1cf	-0.05954152
255	0xbc2a524e	-0.0103955995
